checkpoint/stable_agent.pth (torch, 41849 bytes, 5 tensors)

embedding.weight f4 [16, 64]
-0.8508489 0.18389294 0.031513266 0.15654041 -0.5065038 0.06315285 -2.6078794 -1.6080897
0.07523206 0.21947038 -1.6588695 2.3959715 -0.29385236 -0.8019325 1.5093623 0.0024922115
-0.8049705 0.47052777 -0.62209076 0.78918177 0.10003921 -0.5382712 -0.04268751 -0.6957136
-0.3685777 -0.2518995 1.0653048 -1.3343692 1.5292078 0.6017343 -0.24669711 -0.28843918
-0.66049737 -0.12583433 -1.478946 -1.2492106 -0.47521633 -0.29609296 -0.361518 0.6228537
0.751837 0.17836334 -0.41978535 -0.55425525 -0.44239566 0.47504535 0.48290712 0.25676897
1.3854474 0.9594495 0.03007218 0.15202893 -1.6171547 -1.4850014 -0.7347516 1.4951234
0.17029484 0.49473685 2.1391249 -0.47702682 1.1138258 0.7707007 -0.25758606 0.4384486
-1.0282047 0.16533582 0.14250256 1.4634998 0.4142055 -0.46621802 0.8283509 -0.3900489
-0.6526641 0.2756882 0.2192758 1.5580753 0.92377955 1.0278206 0.5130401 2.059755
0.4085192 -0.71457046 0.40240553 -0.175955 1.037567 -0.33918175 1.9608177 2.658202
-0.8620299 1.6166166 -2.059427 -0.94611937 1.6644984 -0.74448717 -0.032050706 -0.92958754
1.6112329 0.18948951 0.6731281 -1.5692828 -0.070882566 -0.1568753 -0.0064817974 0.76488686
0.24963939 -1.9335955 0.0035867996 0.18879974 -1.2880713 -0.8036046 -0.47685933 -0.29609874
2.1071756 -0.9572668 -2.2044265 0.623178 0.22654201 0.65087146 1.1708647 0.19923031
1.3720694 -1.7085699 0.38629147 0.54404247 0.123473145 2.7625036 -0.031087643 -1.3227909
-0.9626745 -1.8569342 -1.0944172 -0.44010437 0.5573806 -0.9047718 -0.6414449 -0.8417327
-1.2570088 0.7804869 -0.26787674 0.93214387 -0.7146597 -1.455024 -0.28823826 -1.6089994
1.1004137 -0.039161235 -1.5100447 -2.3741188 1.9164559 -1.6249328 -1.0913223 1.0592785
-0.86592686 -0.84512866 -0.33674434 1.8320026 0.01865201 0.77896017 -1.640804 -0.2659111
0.25529218 0.88857466 1.360984 -1.5695661 -0.24648914 0.7970859 0.7809033 -1.0101584
-1.6414026 -1.2306384 -0.20557305 0.9747365 -0.68066514 0.18828726 0.9168631 -0.24210677
-0.9087794 -0.3386407 -0.8387064 2.6397917 0.8499209 0.69722444 0.19495438 -0.90518844
-0.19881772 -0.632207 0.14539693 0.8503828 0.48181993 0.9528304 -0.010035066 -0.59716636
0.9414959 1.2838067 0.8467977 -0.48076218 1.3282782 0.48258737 0.12482153 -2.029796
-2.3142323 0.7216691 -1.420319 -0.7736781 -0.3620808 -0.6152976 0.37589088 -0.31078082
0.5979848 -1.795128 -0.31289232 -1.6176527 2.3847132 0.81383955 -0.9077641 -0.79234827
1.2461737 -0.76174134 0.9560741 -1.1058673 1.2336761 0.7554967 -0.07770401 0.43688697
0.56344044 -1.1663778 -1.1919782 -0.37319136 0.027500559 -0.6420233 1.9583752 -0.35080972
-0.8198717 -0.107792005 -2.0360398 0.366171 -0.32148212 0.54323936 0.6034324 -1.4541551
-0.37529975 -0.88129574 0.27083215 -1.1597836 0.23020747 -1.0716072 -0.2729131 1.5742327
-1.5981513 0.25443843 -0.2888665 -0.06863544 -0.61170465 1.2811067 -0.4497445 1.3389612
00000000: 3cd1 59bf 6e4e 3c3e 0e14 013d 214c 203e
00000010: 3caa 01bf 4856 813d 7fe7 26c0 e2d5 cdbf
00000020: 4413 9a3d d8bc 603e d655 d4bf 9957 1940
00000030: d173 96be 734b 4dbf c932 c13f 5f54 233b
00000040: 8c12 4ebf 04e9 f03e 5741 1fbf d107 4a3f
00000050: 5be1 cc3d 24cc 09bf 19d9 2ebd 491a 32bf
00000060: 37b6 bcbe f9f8 80be e85b 883f 9ccc aabf
00000070: 15bd c33f 420b 1a3f 2b9e 7cbe 4dae 93be
00000080: 5b16 29bf b7da 00be 1a4e bdbf 22e6 9fbf
00000090: 8e4f f3be 7f99 97be e318 b9be 5773 1f3f
000000a0: 6478 403f e1a4 363e 1bee d6be ace3 0dbf
000000b0: af81 e2be 2539 f33e 9a3f f73e 3977 833e
000000c0: 5756 b13f 7c9e 753f ef59 f63c 79ad 1b3e
000000d0: edfe cebf 8714 bebf ae18 3cbf 3460 bf3f
000000e0: c561 2e3e 264e fd3e 6ce7 0840 dc3c f4be
000000f0: d891 8e3f a44c 453f 52e2 83be 567c e03e
00000100: 369c 83bf cb4d 293e 31ec 113e f653 bb3f
00000110: be12 d43e 21b4 eebe ce0e 543f 7db4 c7be
00000120: ff14 27bf 0127 8d3e d689 603e 036f c73f
00000130: d17c 6c3f a08f 833f 9956 033f 07d3 0340
00000140: 6e29 d13e 17ee 36bf 1908 ce3e 8c2d 34be
00000150: ffce 843f 3ba9 adbe 13fc fa3f fb1f 2a40
00000160: fead 5cbf 4bed ce3f a7cd 03c0 e134 72bf
00000170: 490e d53f b696 3ebf 9a47 03bd 73f9 6dbf
00000180: e13c ce3f 8a09 423e 2052 2c3f 42de c8bf
00000190: e12a 91bd eba3 20be 4265 d4bb a0cf 433f
000001a0: 78a1 7f3e 0f80 f7bf 8310 6b3b b854 413e
000001b0: 85df a4bf 08b9 4dbf e826 f4be 419a 97be
000001c0: f7db 0640 700f 75bf 5315 0dc0 9888 1f3f
000001d0: a1fa 673e 839f 263f e5de 953f 0803 4c3e
000001e0: f89f af3f 6bb2 dabf ffc7 c53e 5e46 0b3f
000001f0: 7ddf fc3d dccc 3040 83ab febc 3651 a9bf
00000200: d671 76bf 05b0 edbf dd15 8cbf 5c55 e1be
00000210: 7fb0 0e3f 209f 67bf bc35 24bf cb7b 57bf
00000220: aae5 a0bf fdcd 473f 2427 89be fba0 6e3f
00000230: f0f3 36bf 3a3e babf f793 93be b1f3 cdbf
00000240: 5bda 8c3f 8867 20bd 2549 c1bf 90f1 17c0
00000250: 6d4e f53f ccfd cfbf 73b0 8bbf 7096 873f
00000260: 62ad 5dbf 5a5a 58bf c169 acbe 107f ea3f
00000270: 1acc 983c ef69 473f de05 d2bf 8025 88be
00000280: a8b5 823e a179 633f b934 ae3f 8be7 c8bf
00000290: a667 7cbe d20d 4c3f 47e9 473f df4c 81bf
000002a0: 7b19 d2bf 8f85 9dbf be81 52be 5588 793f
000002b0: 1240 2ebf 60ce 403e 8ab7 6a3f d6ea 77be
000002c0: c4a5 68bf 5062 adbe 76b5 56bf 59f2 2840
000002d0: 6b94 593f 4d7d 323f 1fa2 473e 6eba 67bf
000002e0: df96 4bbe 51d8 21bf efe2 143e b0b2 593f
000002f0: 1ab1 f63e b1ec 733f 1e6a 24bc e5df 18bf
00000300: e005 713f c753 a43f bcc7 583f 7626 f6be
00000310: 0505 aa3f b115 f73e 6ea2 ff3d 2de8 01c0
00000320: 621c 14c0 4ebf 383f 03cd b5bf c50f 46bf
00000330: a862 b9be 2584 1dbf c574 c03e aa1e 9fbe
00000340: 8815 193f c1c6 e5bf 6c33 a0be 3e0f cfbf
00000350: 249f 1840 ca57 503f 3a63 68bf 56d7 4abf
00000360: 9f82 9f3f 7b01 43bf 46c1 743f 0f8d 8dbf
00000370: 19e9 9d3f 3b68 413f 4823 9fbd a6af df3e
00000380: a23d 103f de4b 95bf be92 98bf f012 bfbe
00000390: da48 e13c a45b 24bf 0aac fa3f 559d b3be
000003a0: 1de3 51bf 0ec2 dcbd 7a4e 02c0 c47a bb3e
000003b0: 4e99 a4be bc11 0b3f 8c7a 1a3f c121 babf
000003c0: 4a27 c0be 999c 61bf 83aa 8a3e ca73 94bf
000003d0: 82bb 6b3e 6d2a 89bf 44bb 8bbe 7580 c93f
000003e0: 3990 ccbf c145 823e 4fe6 93be bd90 8cbd
000003f0: ad98 1cbf 4efb a33f e944 e6be 1563 ab3f

fc1.weight f4 [128, 64]
0.10480437 -0.026973607 -0.008314379 -0.01050525 0.12901296 0.26888707 0.047287375 0.17133012
0.03809443 0.101573505 0.14829503 0.1475586 0.17431934 0.23475052 0.059796542 -0.053646706
-0.021788886 -0.042701498 0.050388332 -0.11323221 -0.22481139 0.07848904 -0.038787976 -0.19005498
-0.08507441 -0.088573076 0.15990695 -0.11407484 -0.021287374 0.20917259 0.01568223 0.07067161
0.11697463 0.06520672 0.070578344 -0.1512279 -0.04868898 0.15321244 -0.003826492 0.001276896
-0.070234 -0.015672889 0.19499043 0.044786207 -0.06626155 -0.062097903 0.038700443 -0.01863494
0.026079329 -0.08666013 -0.08124869 0.14002377 0.18601546 0.08335671 -0.10439305 -0.040724203
0.13984911 -0.09869576 -0.06639929 0.11588935 -0.09391268 -0.12090124 0.26290026 -0.15939745
0.13166192 0.12567186 0.06599247 0.013957753 0.13118108 -0.16799697 -0.0837338 0.12267513
-0.1289971 0.19016187 0.059800576 0.03438367 0.17053464 -0.02982303 0.049935885 -0.16593212
-0.23042937 0.031086862 0.05830904 0.13239452 0.092999384 -0.018202301 0.0040532597 -0.07505437
-0.005553402 0.058497828 0.018098032 -0.14874473 -0.027923856 0.009144336 0.011503369 0.03807461
-0.046280064 0.018698193 0.101603135 -0.093106136 0.0806478 -0.08368678 0.15401448 -0.1414356
0.13469397 0.14205807 0.067755096 0.16312064 -0.06234749 0.10543154 -0.049136046 0.20415087
-0.054042112 0.095493704 0.11394288 0.12800427 -0.056460362 0.17596243 0.06879481 -0.10582324
-0.11390709 -0.14941114 -0.12722765 0.13974255 -0.19762793 -0.14123029 0.13755524 0.10700256
0.18590656 0.11377643 0.18626267 -0.16096632 0.036912125 -0.03571013 -0.044526435 -0.1291998
-0.2237457 -0.014282922 -0.020998565 0.14477284 -0.1364975 -0.038062472 0.15621054 0.0068793553
0.07745104 -0.21876617 -0.062769696 0.020699497 0.13803914 -0.0016991622 -0.00043899307 -0.07284535
-0.033390883 -0.067425035 0.043106075 -0.07285239 0.18555047 0.11148689 -0.1191735 0.23771958
0.15048614 0.08573818 -0.0109423 -0.11827584 0.01291337 -0.04567093 0.18066585 -0.060028058
-0.15401195 0.019778272 -0.14687312 0.0013129368 0.03372231 0.095962495 0.099361904 -0.1977491
-0.054634158 -0.005749476 -0.028200444 -0.20108481 -0.010790667 -0.1417763 -0.034269698 0.07650767
-0.174718 0.14025192 -0.13928194 -0.06527001 -0.11686835 0.1045289 0.08622252 0.113368
-0.122824356 -0.2857989 -0.10782849 -0.14886463 0.07934337 0.18398012 0.21863033 -0.31103784
-0.19236514 0.2175348 0.0605909 0.19171624 0.067617655 -0.01848755 -0.045230564 -0.26591223
0.18263635 0.09226493 0.10526101 -0.35520682 0.20116061 -0.11489352 -0.26138937 0.14674895
-0.22563672 0.04790159 -0.012073782 0.24879918 0.28483298 -0.18257734 -0.27246195 -0.26383305
0.07007551 0.28170574 -0.05936944 -0.22020468 -0.03601665 -0.05875791 -0.08985268 -0.10979913
-0.06684204 -0.010416793 0.22546236 0.04840183 -0.2099062 -0.0137333935 0.1669171 -0.29427478
-0.019869486 -0.31069985 -0.28117797 -0.04628042 0.15448123 -0.27238718 0.010469894 -0.1537588
0.18192938 -0.21817182 0.10734061 0.28751805 -0.13506378 0.31867757 0.17355499 -0.10102179
00000000: aca3 d63d c1f7 dcbc 0839 08bc 361e 2cbc
00000010: f91b 043e 91ab 893e 68b0 413d 2a71 2f3e
00000020: e808 1c3d c505 d03d a7da 173e 9a19 173e
00000030: c580 323e 7162 703e 38ed 743d a6bc 5bbd
00000040: 9b7e b2bc c4e7 2ebd ff63 4e3d 4ae6 e7bd
00000050: f534 66be ddbe a03d 24e0 1ebd c69d 42be
00000060: 7e3b aebd cd65 b5bd a6be 233e 12a0 e9bd
00000070: dc62 aebc 5731 563e 0578 803c 47bc 903d
00000080: 6590 ef3d 1a8b 853d 618b 903d 7ddb 1abe
00000090: 196e 47bd b9e3 1c3e e2c5 7abb 855d a73a
000000a0: d8d6 8fbd 6e64 80bc 92ab 473e be71 373d
000000b0: 23b4 87bd 5f5a 7ebd 5b84 1e3d 4da8 98bc
000000c0: 51a4 d53c de7a b1bd b765 a6bd 6462 0f3e
000000d0: d67a 3e3e ecb6 aa3d 06cc d5bd 6cce 26bd
000000e0: 9b34 0f3e 0121 cabd 5afc 87bd 6557 ed3d
000000f0: 4b55 c0bd 129b f7bd dd9a 863e 1639 23be
00000100: 62d2 063e 20b0 003e 0f27 873d 0faf 643c
00000110: 5554 063e 6607 2cbe a07c abbd 193d fb3d
00000120: d117 04be cbb9 423e 73f1 743d e4d5 0c3d
00000130: a2a0 2e3e 6d4f f4bc 9289 4c3d 1cea 29be
00000140: adf5 6bbe e0a9 fe3c 76d5 6e3d 6e92 073e
00000150: 7676 be3d fe1c 95bc 35d1 843b 1bb6 99bd
00000160: 50f9 b5bb 6b9b 6f3d 5342 943c 8a50 18be
00000170: 92c0 e4bc 20d2 153c a078 3c3c 1ff4 1b3d
00000180: 2a90 3dbd f42c 993c 4e15 d03d 6eae bebd
00000190: ac2a a53d f963 abbd f9b5 1d3e 7ed4 10be
000001a0: 37ed 093e ac77 113e 2fc3 8a3d 1909 273e
000001b0: 1560 7fbd 7eec d73d e142 49bd ed0c 513e
000001c0: 435b 5dbd 3492 c33d e25a e93d 8d13 033e
000001d0: fb42 67bd 7f2f 343e 4be4 8c3d dbb9 d8bd
000001e0: 1f48 e9bd 3cff 18be f747 02be ac18 0f3e
000001f0: fa5e 4abe ac9e 10be 48db 0c3e 2824 db3d
00000200: 4a5e 3e3e 9e03 e93d a4bb 3e3e 5bd4 24be
00000210: 2b31 173d c944 12bd 5a61 36bd f44c 04be
00000220: 981d 65be eb02 6abc 2f05 acbc 553f 143e
00000230: 00c6 0bbe 65e7 1bbd a8f5 1f3e 376c e13b
00000240: a79e 9e3d 3d04 60be 668d 80bd fe91 a93c
00000250: 225a 0d3e 6cb6 deba a728 e6b9 f12f 95bd
00000260: e1c4 08bd 2316 8abd ff8f 303d a233 95bd
00000270: f100 3e3e 3d53 e43d 3c11 f4bd c36c 733e
00000280: 0a19 1a3e 8097 af3d 5547 33bc 9b3a f2bd
00000290: 9992 533c 7111 3bbd 7800 393e fbdf 75bd
000002a0: 4fb5 1dbe 0b06 a23c e865 16be d916 ac3a
000002b0: 6820 0a3d fc87 c43d 417e cb3d bd7e 4abe
000002c0: 11c8 5fbd 1a66 bcbb 9e04 e7bc 2de9 4dbe
000002d0: 56cb 30bc ce2d 11be 625e 0cbd 0eb0 9c3d
000002e0: 47e9 32be 339e 0f3e ed9f 0ebe 48ac 85bd
000002f0: ac58 efbd 3f13 d63d 6f95 b03d 7b2d e83d
00000300: 568b fbbd 3c54 92be 2fd5 dcbd f86f 18be
00000310: c77e a23d 4965 3c3e a1e0 5f3e 5a40 9fbe
00000320: 5efb 44be 71c1 5e3e 2a2e 783d 4351 443e
00000330: 207b 8a3d 3473 97bc af43 39bd a625 88be
00000340: 0605 3b3e 65f5 bc3d 1693 d73d abdd b5be
00000350: 0cfd 4d3e 4b4d ebbd d4d4 85be 5b45 163e
00000360: 500d 67be 7534 443d 1dd1 45bc 36c5 7e3e
00000370: a1d5 913e 8ef5 3abe 2280 8bbe 2015 87be
00000380: c083 8f3d bc3b 903e 5f2d 73bd 567d 61be
00000390: 3286 13bd 22ac 70bd af04 b8bd 5ede e0bd
000003a0: 7be4 88bd 32ab 2abc 9bdf 663e ff40 463d
000003b0: a7f1 56be 0702 61bc 51ec 2a3e 2fab 96be
000003c0: 55c5 a2bc 0d14 9fbe 8ff6 8fbe 8a90 3dbd
000003d0: 5430 1e3e 5576 8bbe eb89 2b3c f272 1dbe
000003e0: b24b 3a3e 6f68 5fbe 65d5 db3d 9135 933e
000003f0: 294e 0abe b529 a33e 66b8 313e 83e4 cebd

fc1.bias f4 [128]
0.089266494 0.05075033 0.16166301 0.21754295 0.19507976 0.32775244 0.30169067 0.20265493
0.2982457 0.11801083 0.096018285 -0.058339607 0.079433925 0.06195379 0.123179905 0.15276335
0.1219311 0.29198915 0.18228795 0.06642705 0.26638654 0.322011 -0.07528598 -0.0034342858
0.055178028 0.29414275 -0.060721684 0.23036383 0.28370458 0.06684832 0.073077336 -0.11034003
0.1748447 0.045234676 0.24652272 0.09489574 0.07650068 0.2157169 0.17794257 0.16605793
0.13961758 0.23043224 0.074690185 0.25824296 0.19680087 0.12732658 0.3072352 -0.010159023
0.17810865 0.25511286 -0.06309061 0.35186934 0.32995066 0.14123791 0.07959826 -0.00554224
0.3807594 0.02494205 0.39407054 0.12627824 0.16250023 0.23185441 -0.07711979 0.21929707
0.01720109 0.24322796 0.41080958 0.06794177 0.0827281 0.22697213 -0.01947057 0.21215777
0.21142869 0.3008181 0.023089498 0.20722209 0.07089673 0.3220936 0.24646847 0.17190763
0.15436116 0.21274339 0.36428276 0.030610207 0.27071953 0.16047454 -0.03695801 0.18295845
0.0032969273 0.10387485 0.18832476 -0.05500773 0.095953345 0.2818117 0.06015293 0.3138279
0.19694504 0.03875748 0.24534574 0.30406025 0.11777164 0.29350287 0.29509598 0.11301144
0.32173696 0.05335689 0.013599004 0.0008607153 0.1786414 0.201265 0.22202474 0.19860964
0.18001312 0.16246825 0.2957861 0.16357896 0.32446307 0.18978682 0.16043724 -0.051703796
0.1265618 0.049860742 0.044034462 0.09371924 0.317873 0.02528999 0.30289423 0.12404302
00000000: 5ad1 b63d 94df 4f3d fd8a 253e 94c3 5e3e
00000010: fdc2 473e 2bcf a73e 3377 9a3e c684 4f3e
00000020: a9b3 983e a9af f13d 3ca5 c43d 83f5 6ebd
00000030: 41ae a23d 42c3 7d3d bf45 fc3d ff6d 1c3e
00000040: 03b7 f93d 9a7f 953e b1a9 3a3e e80a 883d
00000050: d163 883e a0de a43e 892f 9abd c111 61bb
00000060: 5b02 623d e199 963e 4db7 78bd 7fe4 6b3e
00000070: ba41 913e c6e7 883d 92a9 953d f4f9 e1bd
00000080: 7d0a 333e ff47 393d 7470 7c3e b358 c23d
00000090: 63ac 9c3d e4e4 5c3e 9436 363e 170b 2a3e
000000a0: e9f7 0e3e 6ef6 6b3e 2bf7 983d 6c38 843e
000000b0: 2b86 493e e661 023e ef4d 9d3e 0872 26bc
000000c0: 1d62 363e 279e 823e a635 81bd 3828 b43e
000000d0: 4bef a83e aca0 103e 6a04 a33d ae9b b5bb
000000e0: e5f2 c23e 4553 cc3c 9dc3 c93e 154f 013e
000000f0: 7666 263e 3e6b 6d3e fbf0 9dbd 698f 603e
00000100: 4de9 8c3c c010 793e a255 d23e 0e25 8b3d
00000110: 5a6d a93d 626b 683e bf80 9fbc e33f 593e
00000120: c380 583e d404 9a3e 3026 bd3c 0732 543e
00000130: 4e32 913d 74e9 a43e 3b62 7c3e 8e08 303e
00000140: da10 1e3e 67d9 593e 4583 ba3e 42c2 fa3c
00000150: c09b 8a3e 7053 243e 4861 17bd 7659 3b3e
00000160: 4311 583b 56bc d43d 35d8 403e c94f 61bd
00000170: 3083 c43d a049 903e eb62 763d 0dae a03e
00000180: f6ab 493e 2ac0 1e3d ea3b 7b3e c9ad 9b3e
00000190: 4232 f13d 0246 963e d216 973e 8b72 e73d
000001a0: b5ba a43e c18c 5a3d 5bce 5e3c a0a1 613a
000001b0: c5ed 363e 6a18 4e3e 745a 633e 5360 4b3e
000001c0: 5c55 383e 145e 263e 4771 973e 3e81 273e
000001d0: 0620 a63e 7a57 423e a949 243e 5cc7 53bd
000001e0: 6b99 013e c73a 4c3d 7b5d 343d dfef bf3d
000001f0: 40c0 a23e f42c cf3c f414 9b3e 440a fe3d

fc2.weight f4 [4, 128]
-0.06780334 0.13109241 -0.04351047 0.07596152 0.20488721 0.1404557 0.046892602 0.22946478
0.06807714 0.15093066 -0.056808293 -0.1438584 0.12599353 -0.009211406 0.15018275 0.25262687
0.19073388 0.20865016 0.014733348 0.019745052 0.09109251 0.17605534 0.02725107 -0.11947512
0.22765984 -0.006077587 0.013427548 0.22858137 0.058854345 -0.06901816 0.16823183 -0.13595073
0.0019390408 -0.041115027 0.16056627 0.20432286 -0.048777573 0.14011005 0.23474738 0.15300024
-0.094945945 0.17958294 -0.077957235 0.24501206 0.014221501 0.028444823 0.26277676 -0.010795448
0.07888193 0.23439306 -0.096226975 0.13773838 0.0014802862 0.10463679 -0.02795448 0.080300525
0.21705388 0.013737662 0.1255374 0.16377258 0.26933518 0.01723221 -0.10616442 0.15224892
-0.13076097 0.19115317 0.029627962 0.011518589 0.07794971 -0.040198818 -0.11258505 0.060134172
0.103824496 0.21630156 0.15882833 0.08390079 -0.089199446 0.18171896 0.09410779 0.24532309
0.19128172 0.09728826 0.28371528 -0.074029826 0.024994276 -0.015386717 0.08149489 0.1714033
-0.1077217 0.2688736 0.11663132 -0.0016927891 0.12104017 0.2500536 -0.08286345 0.18144998
-0.011060617 -0.03373536 0.16320172 0.29342914 0.030039672 0.16370903 -0.01023298 0.10272164
0.17044555 0.11119156 -0.07578038 -0.036404125 0.2708839 0.22468756 0.26292732 0.03187006
-0.07947001 0.12096683 0.05073247 0.16397978 0.23946653 0.021312093 -0.01071164 0.1722241
0.13748209 0.032466292 -0.0185771 0.21022113 0.30255255 -0.020428395 0.05747834 0.15046225
-0.12679249 -0.15996692 0.15865791 0.14103986 0.03333267 0.18048747 0.11478955 0.17259113
0.09730572 0.072138794 0.017463118 -0.046583854 0.030271564 -0.03448164 -0.029692207 0.15227814
0.014455201 0.23541224 0.14382629 0.15113123 0.19698903 0.24457628 -0.0097376555 -0.05283242
-0.08204689 0.3442193 0.16099775 0.15518303 0.040983953 -0.038592502 -0.054709 -0.06139716
-0.065612435 -0.05726444 0.011975215 0.17997247 0.1545564 0.1048461 0.09773261 0.11043797
0.1281752 -0.0034251786 -0.06978442 0.048018686 0.042042304 0.1371403 0.15945037 -0.105844624
0.16076879 0.06124239 -0.03718314 0.1150768 0.043336302 0.301722 0.03347851 -0.054498155
0.014230306 -0.06421136 0.10013566 0.27643782 0.109273806 0.075501226 -0.05138116 0.09206648
-0.11463142 0.09418644 0.08866527 -0.004640432 0.1265666 0.1518905 0.019365726 0.2507548
-0.21494375 0.025244066 -0.032493666 0.13779832 -0.054084774 0.12614852 0.2333758 0.052230317
0.058330785 0.21610214 0.11451761 -0.0019076715 0.17186545 0.10734492 0.0071470416 0.039805073
-0.09548221 0.07739366 0.11547308 -0.041031074 -0.05086526 0.19513674 0.13457982 0.03671353
0.06086539 -0.082842536 -0.047938474 0.103090756 -0.0089386385 0.08768236 0.17098126 0.026456473
0.21767926 -0.005582887 -0.05073052 0.025171906 0.045916993 0.047153458 0.15750256 0.20535815
0.040830962 0.0006769125 0.17202874 0.13664807 0.03664814 -0.044969928 -0.062430833 0.0074310726
0.044131175 0.08756527 -0.044847153 -0.12562208 0.022434006 0.12628059 -0.028979486 0.235969
00000000: 7adc 8abd 173d 063e 0938 32bd b791 9b3d
00000010: f4cd 513e 9ed3 0f3e 7512 403d d1f8 6a3e
00000020: 076c 8b3d 918d 1a3e d0af 68bd 9e4f 13be
00000030: 7304 013e 70eb 16bc 82c9 193e 4f58 813e
00000040: be4f 433e 63a8 553e 2464 713c 60c0 a13c
00000050: b68e ba3d da47 343e a33d df3c 5faf f4bd
00000060: a91f 693e 7f26 c7bb 38ff 5b3c 3c11 6a3e
00000070: 4111 713d 6559 8dbd f744 2c3e ab36 0bbe
00000080: 6a27 fe3a 3b68 28bd 7c6b 243e 033a 513e
00000090: feca 47bd 0279 0f3e 9e61 703e 18ac 1c3e
000000a0: 0573 c2bd 97e4 373e 0ba8 9fbd 71e4 7a3e
000000b0: 4c01 693c 1e05 e93c ad8a 863e 64df 30bc
000000c0: d98c a13d bc04 703e a612 c5bd 4a0b 0d3e
000000d0: 2a06 c23a d04b d63d cb00 e5bc 9a74 a43d
000000e0: 5f43 5e3e ee13 613c e08c 003e 00b4 273e
000000f0: 4de6 893e 902a 8d3c bb6c d9bd 24e7 1b3e
00000100: 34e6 05be a8bd 433e 57b6 f23c 77b8 3c3c
00000110: 19a4 9f3d 84a7 24bd fe92 e6bd 404f 763d
00000120: f0a1 d43d 287e 5d3e e5a3 223e 2dd4 ab3d
00000130: 33ae b6bd 8914 3a3e 96bb c03d fa35 7b3e
00000140: 5bdf 433e 113f c73d 2143 913e f39c 97bd
00000150: ccc0 cc3c 9218 7cbc cbe6 a63d 5984 2f3e
00000160: 329d dcbd cda9 893e 67dc ee3d 94e0 ddba
00000170: e9e3 f73d 0707 803e 50b4 a9bd 06ce 393e
00000180: 9737 35bc 172e 0abd 5a1e 273e 583c 963e
00000190: c215 f63c 57a3 273e 3ba8 27bc b95f d23d
000001a0: 4789 2e3e 67b8 e33d be32 9bbd 7e1c 15bd
000001b0: 4bb1 8a3e 7f14 663e 699e 863e 2e8a 023d
000001c0: 2cc1 a2bd 75bd f73d dacc 4f3d 51ea 273e
000001d0: b736 753e b396 ae3c e07f 2fbc 845b 303e
000001e0: 1bc8 0c3e 60fb 043d 012f 98bc 3544 573e
000001f0: 2be8 9a3e 7359 a7bc 686e 6b3d c712 1a3e
00000200: e4d5 01be 5ece 23be 3877 223e c16c 103e
00000210: d687 083d b5d1 383e c916 eb3d bbbb 303e
00000220: 3948 c73d 81bd 933d d00e 8f3c b6ce 3ebd
00000230: 12fc f73c 9f3c 0dbd 123d f3bc cdee 1b3e
00000240: 82d5 6c3c e80f 713e 3347 133e 25c2 1a3e
00000250: 7eb7 493e 3472 7a3e b08a 1fbc cf66 58bd
00000260: 3308 a8bd 833d b03e 98dc 243e 4de8 1e3e
00000270: cade 273d 2c13 1ebd 8b16 60bd 977b 7bbd
00000280: d05f 86bd 1e8e 6abd b133 443c b44a 383e
00000290: 0844 1e3e 8db9 d63d 0928 c83d 4d2d e23d
000002a0: 5c40 033e f678 60bb 22eb 8ebd 3eaf 443d
000002b0: 8d34 2c3d 826e 0c3e f546 233e 11c5 d8bd
000002c0: 93a0 243e 4dd9 7a3d 594d 18bd 63ad eb3d
000002d0: 6881 313d 4e7b 9a3e c320 093d 7539 5fbd
000002e0: 3b26 693c 3f81 83bd ed13 cd3d 4289 8d3e
000002f0: f2ca df3d 63a0 9a3d 0d75 52bd 5a8d bc3d
00000300: e1c3 eabd d2e4 c03d 2396 b53d c40e 98bb
00000310: ad9a 013e 2f89 1b3e dfa4 9e3c ef62 803e
00000320: 371a 5cbe a5cc ce3c 1418 05bd 011b 0d3e
00000330: ff87 5dbd 142d 013e 11fa 6e3e 75ef 553d
00000340: 43ec 6e3d e149 5d3e 3588 ea3d d50a faba
00000350: 7ffd 2f3e a7d7 db3d bb31 ea3b a50a 233d
00000360: 2d8c c3bd 9180 9e3d 267d ec3d 3310 28bd
00000370: 1758 50bd edd1 473e 4bcf 093e ed60 163d
00000380: fd4d 793d 59a9 a9bd 225b 44bd 3f21 d33d
00000390: 5e73 12bc cf92 b33d b615 2f3e 3fbb d83c
000003a0: 50e7 5e3e a7f0 b6bb ceca 4fbd 5035 ce3c
000003b0: 7513 3c3d fc23 413d 5a48 213e 6849 523e
000003c0: 5e3e 273d d472 313a 4d28 303e 79ed 0b3e
000003d0: 5c1c 163d 6332 38bd 79b7 7fbd 5b80 f33b
000003e0: e4c2 343d 6c55 b33d a6b1 37bd 13a3 00be
000003f0: 85c7 b73c b34f 013e 6366 edbc dca1 713e

fc2.bias f4 [4]
0.08092884 0.15137757 0.10542027 0.18320666
00000000: 05be a53d b902 1b3e 95e6 d73d 879a 3b3e
