EI_intro/checkpoint/q_learning_agent.pth (torch, 41885 bytes, 5 tensors)

embedding.weight f4 [16, 64]
00000000: e893 28bf 8c02 0040 56a3 63be 7baa dd3f
00000010: 8131 d83f eb6f e6bf 27df 8b3e 9ea1 44be
00000020: 5b41 803f 824b 46bf 6a11 993e 1755 133f
00000030: c8d3 ca3e 863e 72be e9f9 cf3f d29f 933f
00000040: 2f22 853f 6dc7 48be 11c5 c03f b469 4abf
00000050: 49bd 96be 88d8 49bf 9be2 23bf d0ca d13e
00000060: 2756 003f 5198 65bf 4b98 0bc0 8438 92be
00000070: 2f65 293f bf3b 94bf 00e8 7bbf 1494 8fbd
00000080: bc12 b93f cbb3 543f 7c4d 6ebf e044 babe
00000090: d16b 91bf f63a bdbe 9829 76bf d1c2 3d3f
000000a0: 0612 543f 3365 223f b1bb f3bf 65fc bfbd
000000b0: 1157 b7bf 81cb 723f b5ca 46bd 6074 bc3f
000000c0: 2fc7 8e3f 5448 5e3e c6a7 933f 8cba 95bf
000000d0: d546 50be 2e81 9dbf f7b8 d4bf f598 0fbe
000000e0: f6a1 a83e 9be1 013f cbaf b73d 4ee5 c93d
000000f0: ac19 943f 05a2 c63f d07b dfbf dade ce3d
00000100: e81f 0dc0 f7f2 9fbf c462 1cbf 2ce5 d83e
00000110: f419 0340 6bae c2bc 7492 213d 7f03 0ac0
00000120: 0acc 7cbf 371e 693e 5986 653f 652b 27c0
00000130: 7946 95bf b268 c2bf f0b3 c33f d6bf 6b3f
00000140: 60f7 dfbf b54f 29c0 9e12 aabf 9b11 083f
00000150: 10db 8fbf 5bb9 b2bd ba96 c4bd d863 783e
00000160: dc9f 85bf 2dbc 27bf bf98 8d3f efd5 253f
00000170: 1f16 083e 6756 84bf 1b42 5f3e 6055 8fbe
00000180: 6964 7dbe 6bb9 5ebe 7072 15be e176 7ebf
00000190: 1e6e cd3f c55a ac3e 4d3f a7be c280 0f3f
000001a0: 8b46 96bf 777a 85be bf22 f63e 79dc 6abf
000001b0: 4e56 3cbf 5a10 dcbd bff1 0a3f b173 89bf
000001c0: 033b e13d 4377 21bf 00d6 10bf ccd0 cfbf
000001d0: ba28 37bf f59a 603f 9ac9 50be 452e e33e
000001e0: a314 593f bfdb 1abd 92e1 ac3d 3397 0240
000001f0: 812a 4c3d 1d9f 70bf c4f9 0c40 a9cd 39be
00000200: d40c 54be 3456 593f 8f8e 843f 4c46 03c0
00000210: 1d5b 4fbf b4e9 ae3e c80c 6f3f 3b92 273f
00000220: 1c2e 293d 26bc 04c0 ea82 bc3e e3a7 f0bf
00000230: cdca 4dbf a974 eebe 144c b7be be83 b6bf
00000240: e7ba dd3e b97d 00bf efad b4be 3a74 3a3f
00000250: abf6 cdbe 126d 97be 2374 153f d1d5 ba3f
00000260: ad0d 773f 3075 b43f 91f5 3d3f f194 513f
00000270: 7849 4ebf e3b4 9b3e 572f 1f3e 8060 66bf
00000280: 4d8a a53c dea4 103f 0f17 a0bf 6818 203e
00000290: b7c3 06bf 8166 3dbe ba8b b53f b0cc 94bf
000002a0: 5fb8 e73f dc03 f7bf 1230 4bbf a1ef 89bf
000002b0: 0227 ba3f 7312 b83c acb3 10bf d86b e83f
000002c0: be21 433f 8df9 883c e64a 7ebe 1cbd acbf
000002d0: 96c5 11bf d133 09bf 7a31 f0be ff59 303f
000002e0: aebb bb3f 01e0 c23f 1ee2 083f 73e7 763f
000002f0: 6786 593e fb41 44be 6bdb cbbd 3e85 be3e
00000300: 407e 533f d989 d93f e032 b23f 8e56 fa3f
00000310: 4e04 afbe 33fe 4c3f 8216 acbd 993c d7be
00000320: 462f 423f 5861 6c3f 0d40 5d3f 077d a6be
00000330: 725b a63d cac9 10bf d7db bebe 2a13 d9bd
00000340: a226 febd c6ee 97be 9ba3 70bf 85ef d53d
00000350: df1e ddbe d443 93bd 29ce 31bf 760b e73d
00000360: 5d59 b03e 7b60 03be aef8 103f 3073 09be
00000370: b311 4fbe e7a2 3f3e 2fd8 6e3f 7e41 0140
00000380: b318 3a3e a225 27bf 35db 2c3f d22b e9bf
00000390: 6002 bfbf 3dc6 b83f ed15 f7be d189 1b3f
000003a0: 1011 0fc0 2654 d5be b30a 92bf d27d 13c0
000003b0: a586 2f3c 7b34 1b3f 1a93 0ec0 38be 923d
000003c0: dcf8 e53f 71d4 973f 26d2 e03d 9dc0 f13e
000003d0: 9a90 a8bf 40b5 86bf 16bb 703f 121d 123f
000003e0: 0757 de3f 0dad 773f 87ae b43f e30e 9abf
000003f0: b7c6 09be 2277 79bd 3c62 343f abc7 70bf
-0.6585069 2.0001554 -0.22230276 1.7317652 1.6890107 -1.8002905 0.2731869 -0.19202277
1.0019945 -0.77458966 0.29896098 0.5755171 0.396147 -0.23656663 1.6248142 1.1533148
1.0401057 -0.19607325 1.506014 -0.7906754 -0.29441288 -0.78846025 -0.6401765 0.40975046
0.5013146 -0.8968554 -2.1811702 -0.28558743 0.6617002 -1.1580733 -0.9840088 -0.070106655
1.4458842 0.8308684 -0.9308698 -0.36380672 -1.1361028 -0.36959046 -0.9615722 0.7412539
0.8284 0.6343567 -1.9041654 -0.09374312 -1.4323446 0.9484177 -0.04853316 1.4723015
1.1154536 0.21707278 1.1535575 -1.1697555 -0.2033952 -1.2305048 -1.6618947 -0.14023192
0.32936066 0.5073487 0.08969077 0.098581895 1.1570334 1.5518194 -1.745966 0.10101099
-2.2050724 -1.2496022 -0.61088204 0.42362344 2.048459 -0.02376481 0.03944631 -2.1564634
-0.9874884 0.22765432 0.89658123 -2.6120236 -1.1662132 -1.51882 1.5289288 0.92089593
-1.7497368 -2.64549 -1.3286932 0.53151864 -1.1238728 -0.0872676 -0.09599061 0.24256837
-1.043941 -0.6552151 1.106224 0.6477956 0.13289689 -1.0338868 0.21802561 -0.27994823
-0.24745335 -0.21750419 -0.14594436 -0.99400145 1.604923 0.33663002 -0.32665482 0.56055844
-1.1740278 -0.26069996 0.48073384 -0.91742665 -0.7356919 -0.10745306 0.54275125 -1.0738431
0.10997584 -0.63072604 -0.5657654 -1.6235595 -0.7154652 0.87736446 -0.20389405 0.44371238
0.84797114 -0.037807222 0.084414616 2.0404785 0.049845222 -0.9399279 2.2027445 -0.1814486
-0.20708019 0.8489716 1.0356005 -2.0511656 -0.809984 0.34162676 0.9337888 0.65457505
0.04130374 -2.0739837 0.3681863 -1.8801235 -0.80387574 -0.4657338 -0.3580023 -1.4258955
0.43306658 -0.5019184 -0.3528895 0.728336 -0.40227255 -0.29575402 0.58380336 1.4596502
0.9650524 1.4098263 0.7420283 0.8186789 -0.80580854 0.30411443 0.15545402 -0.89991
0.020207549 0.5650157 -1.2507037 0.1563431 -0.5264239 -0.18496133 1.4183266 -1.1624966
1.810314 -1.9298053 -0.79370224 -1.0776254 1.4543154 0.022469735 -0.5652416 1.8157911
0.7622336 0.016720558 -0.24833259 -1.3495212 -0.5694212 -0.5359469 -0.46912748 0.68887323
1.466665 1.522461 0.5347003 0.96446913 0.21242677 -0.19165795 -0.0995396 0.3721103
0.8261452 1.6995193 1.3921776 1.9557664 -0.34182972 0.8007538 -0.084027305 -0.4203842
0.75853384 0.92336035 0.8642586 -0.32517263 0.081229106 -0.56557906 -0.372771 -0.105993584
-0.124097124 -0.29674357 -0.9399964 0.10446075 -0.43187615 -0.071906716 -0.694552 0.11281483
0.3444318 -0.12829773 0.56629455 -0.13422847 -0.20221595 0.18714486 0.9329862 2.0196223
0.18173485 -0.652918 0.67521983 -1.8216498 -1.49226 1.4435498 -0.48258916 0.60757166
-2.2354164 -0.41665763 -1.1409515 -2.3045545 0.010713254 0.60626954 -2.2277284 0.071651876
1.7966571 1.1861707 0.10977583 0.47217265 -1.3169129 -1.0524063 0.9403547 0.5707561
1.7370309 0.9674843 1.4115762 -1.2035793 -0.1345471 -0.06090463 0.70462394 -0.9405467

fc1.weight f4 [128, 64]
00000000: 5d87 08be 1112 82be 8f48 843a eb15 d43c
00000010: c8af 5f3e 63e4 c93d abfb 123e 7ad6 223e
00000020: 6546 bdbd ccfd 273d 687c 8bbd 0075 76be
00000030: 1296 c5bc 33a1 f5bb f3bc 003e 59d6 503e
00000040: 95a7 2e3e e5d2 bc3c 30c4 1dbe a6e2 673d
00000050: c2eb 393e d224 d63d 3a25 37bd 2283 703e
00000060: 71a3 1c3e 1c9a 0dbe e52d 453d 1e3d 6fbe
00000070: 42ab 22be e6c7 76be e6e0 18bd 5958 013e
00000080: bcfc 4ebe 1981 35be aee7 0cbe 1b4e 01bd
00000090: ac49 543e e9a5 0dbe 61d6 783d 8031 4e3e
000000a0: 10b6 a5bd b3b5 883d 7b36 e2bc 8e2f 8d3c
000000b0: c0a6 78bd d2cd 3bbd 3991 d3bd bfde 50be
000000c0: 500b 84bd 81eb 6c3d 1663 adbb a36d 08be
000000d0: 33de 22bd 3bd3 993e b232 393e 8099 2abd
000000e0: 1897 393d ba8f ed3b 7440 7bbb 1b94 cf3d
000000f0: 6810 dd3c 04d0 df3d 9fd1 49bd 7fa3 79bc
00000100: 2046 483e 4dd1 4fbe 0307 363e f5e5 adbc
00000110: c380 843c d5d8 dbbc f892 44be d52d 88bd
00000120: c954 e6bb 7dc5 a3bd fa7b 043e 982a 693e
00000130: 3c8f 013d 6fa1 1d3e d766 9dbd 7097 7cbe
00000140: cfb4 ab3c 1288 e5bd 50ed ce3d 07fd 013e
00000150: 1526 4d3d b5d7 073c aeba e2bd d124 01be
00000160: 86cd 92bc e3c7 3fbe a520 85bd 2bd6 e9bd
00000170: 3d64 cdbb b4d1 b5bd 7d21 813d d392 88be
00000180: 39fd 023c 70ff 85bd d064 8fbd d1e9 f1bd
00000190: 7dab a5bd 4cc0 90ba 05a7 1ebd d349 413d
000001a0: d4e5 6bbe c78f 0abe ad47 1d3e 3808 c93d
000001b0: 0e70 2e3e 84cc ed3d 2a47 d0bd 896c 773d
000001c0: f481 cd3c e2cc 27be a6d9 2ebe 724d 063d
000001d0: 9fb1 aabd 6864 603d 1917 3b3e a6b4 023e
000001e0: 5a0b 083e 9a9c 25be 9227 6a3e 36a8 0d3d
000001f0: 2d5d 613e 11d1 41bd 2386 17be 797b 3abe
00000200: d0b5 d1bc a318 d7bd 93ed 373e 7f6e 9a3d
00000210: 67e5 093e 10f7 eebd 70bf 523e 920c 79bd
00000220: a57f 3d3d b72d 993d 157f 1dbe ba65 4dbe
00000230: b28b 203d 26a4 04be 984c 343e 5c06 ea3c
00000240: 6ede 853d dfbd 26be 0581 103c ec34 d43c
00000250: 5632 7fbd 49c7 1ebe aa4b 18bd efff f33d
00000260: 1994 423c a84d 33bd 6548 f13d 10f6 95be
00000270: 7626 3abe 5970 debd f2d8 5a3e 7327 ad3a
00000280: 1af8 073a 213f 37be 39c8 503d a3d0 20be
00000290: e15c 413e decb b2bc 5fc7 ee3d 9900 c23d
000002a0: e24d dbbc 09ce cc3d 3ae9 e33d 8701 b6bd
000002b0: c0bf eabd 13d2 c03d b12f 08be c57a 1fbe
000002c0: 31db 8d3d d6b5 833d 0751 12be 9b9f 6abe
000002d0: bde1 1abd 8837 283e a1f0 1a3e 4a31 2d3e
000002e0: 905b 103e 9a84 d8bd e105 d1bd 4f5d d33c
000002f0: 5f4a edbd cf2b babc c6fc 163e a180 1a3e
00000300: 7f18 bb3e b890 0bbd 24f5 623d a5f9 01be
00000310: 0aa9 29be 2695 b43d a115 44bd fcbe c8bd
00000320: ceb8 d23d 9868 8dbd d245 5fbc 0238 c83d
00000330: 2043 093d e200 12be b932 993d 05bf 573d
00000340: 9bf9 8dbe a2e1 a4be 5fec fd3d 5136 90bc
00000350: ac5e f63d b2f3 d63d 9f54 b53d 97e9 c6bc
00000360: dbff ec3d 8c5c a4bd d6d2 72bc ab46 35be
00000370: d55f 713e 496e 0fbe 00e4 93bd f7fc dcbd
00000380: 44b1 b8bb a616 c3bd ec29 0c3e e695 713d
00000390: 38cd bebd cf11 593d 3ed4 d83d 2a5c f9bc
000003a0: 40cf 5ebe b488 713b 26c2 1fbe ce12 9d3d
000003b0: c92d 12be 17f1 e13c b1a1 853d 6231 3cbe
000003c0: 0b10 813d 40f6 4bbe e16b 38be f90c e03d
000003d0: 966b 4c3e 4158 d33d 46af 58be 650e d8bd
000003e0: 603a 89bd d768 3fbd 5855 5abe 0df8 0e3d
000003f0: f69b a83d bc26 f0bc affc 3bbe 9d65 8f3d
-0.13332887 -0.2540441 0.0010092425 0.025889358 0.21844399 0.098580144 0.14353816 0.15902129
-0.09241942 0.041013524 -0.06810838 -0.2406807 -0.02411941 -0.007496023 0.12572078 0.20394267
0.17056115 0.023049781 -0.15406871 0.056612633 0.1815634 0.10456242 -0.044713236 0.23487523
0.15296723 -0.1382832 0.04813947 -0.23363158 -0.15885642 -0.24099693 -0.037323855 0.12631358
-0.20213598 -0.17725028 -0.13760254 -0.031568628 0.20731229 -0.13832821 0.060751323 0.2013607
-0.08091366 0.066752814 -0.027613869 0.01723459 -0.0607059 -0.045850582 -0.103304334 -0.20397471
-0.0644747 0.05784178 -0.005291353 -0.13323073 -0.039762687 0.3004397 0.18085745 -0.041650295
0.04531011 0.0072497996 -0.0038337978 0.10135671 0.026985362 0.10928348 -0.049272176 -0.015236734
0.19558 -0.20294686 0.17776112 -0.021227816 0.01617468 -0.026836792 -0.19196689 -0.06649367
-0.00702915 -0.07996652 0.12937918 0.22770154 0.03163074 0.15393613 -0.07685631 -0.24667144
0.02096024 -0.11207594 0.101038575 0.12694179 0.050085146 0.008291175 -0.110707626 -0.126117
-0.017920267 -0.18728594 -0.06500367 -0.114178024 -0.006268053 -0.08877888 0.063052155 -0.26674518
0.007994943 -0.065428615 -0.0700165 -0.11812175 -0.080893494 -0.0011043637 -0.0387335 0.047189545
-0.23036891 -0.13531409 0.15359373 0.09816021 0.17034933 0.11611274 -0.101698235 0.06040624
0.02508638 -0.1638675 -0.17075214 0.0327887 -0.0833466 0.054783255 0.1827053 0.12764224
0.1328558 -0.1617302 0.22866657 0.034584247 0.220082 -0.047318522 -0.14797263 -0.18211164
-0.02559939 -0.10502746 0.17961721 0.07540607 0.13466416 -0.11668217 0.2058084 -0.060803004
0.04626431 0.074794225 -0.15380509 -0.20058337 0.039195724 -0.12953243 0.17607343 0.028567486
0.06536566 -0.16283368 0.008819823 0.025904141 -0.062303863 -0.15505709 -0.037181534 0.1191405
0.01187613 -0.04377523 0.11781386 -0.29289293 -0.18178734 -0.10861272 0.2137182 0.0013210609
0.00051868113 -0.17895176 0.050972197 -0.15704589 0.18883087 -0.021825727 0.11659121 0.0947277
-0.026770536 0.100002356 0.11128469 -0.0888701 -0.11462355 0.094150685 -0.13299443 -0.15574177
0.06926573 0.06431167 -0.14288722 -0.22912447 -0.037812937 0.16427433 0.15130855 0.16913334
0.14097428 -0.10572167 -0.102061994 0.025801329 -0.11586451 -0.022725968 0.14744863 0.1508813
0.36542127 -0.03407356 0.055409566 -0.12692888 -0.1656839 0.0881751 -0.04787219 -0.098020524
0.10289155 -0.06904715 -0.013627486 0.09776308 0.03351128 -0.1425815 0.07480378 0.052672405
-0.27729496 -0.32203394 0.123986 -0.017604025 0.12029776 0.104957 0.08854031 -0.024281306
0.11572238 -0.080254644 -0.014820775 -0.17702739 0.23571713 -0.14006914 -0.07221222 -0.10790437
-0.005636366 -0.09525804 0.13687867 0.058980845 -0.09316486 0.0529955 0.10587357 -0.030439455
-0.21758747 0.0036855163 -0.15601406 0.07669602 -0.14275278 0.02758078 0.06524981 -0.18378213
0.06301888 -0.19918156 -0.18009903 0.10939974 0.19962916 0.103195675 -0.21160612 -0.105496205
-0.06700587 -0.046730842 -0.21321619 0.03490453 0.08232872 -0.029315345 -0.1835811 0.07001803

fc1.bias f4 [128]
00000000: 61d5 9e3c d0dd 213e 0dea 2b3e 745e 8a3d
00000010: 7f62 8b3d 6285 07be 49ae 6b3d aa6c edbc
00000020: 0f2b 143e cce6 0b3d 8be1 14bb 0197 c33d
00000030: fdb6 b0bc 5488 553e afb3 843d 5227 95bd
00000040: 592d 1ebd c30e a8bc 0261 bbbd 0393 213e
00000050: a9db dabb e3e9 983d 3b30 413e 2157 363a
00000060: 02d4 d33d a59c 593e 6ca2 b0bd d7af 053e
00000070: 0c7a 773d 4ac6 2f3e 07cc 2b3e 1d4b 673d
00000080: 7ef4 2cbe 6ae0 7a3d adca 393e b6d2 833c
00000090: 3d8d 0cbd 7692 b13d 5274 adbc a157 b0bc
000000a0: edb0 3f3e 194c 8c3d 7601 053e c462 953a
000000b0: 0286 303d edac a83d 5abc c63d c9dc 433e
000000c0: 76a6 8fbc 4748 373e 2939 4d3e cfa8 fe3d
000000d0: d496 023d 7c57 073e 200a 1c3d 505a 4a3e
000000e0: 154f aabd 2d19 69bd 8b2f 303e 32e2 3a3d
000000f0: dabd 6d3d 915d 09bd c28e f83d fcbe d83c
00000100: 924f 113d 69cd 7d3d 50ad c03d a20f 81bd
00000110: 4cdc 693e 6fa6 0cbe 46b7 553e e0b7 50bd
00000120: d195 843e a2ca 123e a406 333d 835e 2e3e
00000130: 35c2 f23d 24c1 2ebb b066 113e c75c 39bd
00000140: 7ad9 593e 4814 c93d c0ec ba3a fbbd 003e
00000150: 1a60 333d 862d 183e 8da2 803d 7cbb ffbd
00000160: 76c8 59bd b0f4 5d3d cabc 453e a916 b13d
00000170: 6e5e ea3d 98e5 dc3d 2155 a2bd 5f12 b43d
00000180: 01af 253e c1a1 42be 1fb3 483c b21d 69bd
00000190: 89d0 cc3b 9572 9d3d 9f8a aabc a503 82bc
000001a0: eb58 88bd 102b 183d fe55 1f3e 8bb3 113d
000001b0: 97ad 9e3d 97d7 033e 5565 173d b12e 453e
000001c0: 8ece be3c 2a2f 143e e185 53bc f40e 0b3c
000001d0: 3492 263b 3eb0 243d 8f0e b63d 2e4d d8bb
000001e0: d64d 21bc 4e56 623e 4cbd fe3d 4139 133e
000001f0: 5c58 913d 091d 283e 44f5 293e 1c1f 29bd
0.019388856 0.15807271 0.16788502 0.06756297 0.06805896 -0.13234475 0.05753926 -0.02898248
0.1446955 0.034155652 -0.0022717442 0.09550286 -0.02157163 0.20852786 0.064795844 -0.072828904
-0.038617466 -0.020514851 -0.09149362 0.15778737 -0.0066790176 0.07466485 0.18866055 0.0006955732
0.10343172 0.21251161 -0.086247295 0.13055359 0.060419127 0.17165485 0.16777049 0.056468118
-0.16890141 0.061249174 0.18143721 0.016091686 -0.034314383 0.08670513 -0.02117363 -0.02152616
0.18719836 0.06850452 0.12988839 0.0011397232 0.04309655 0.08236108 0.09703894 0.19127192
-0.01753543 0.17898665 0.20041336 0.124345414 0.031882122 0.13216966 0.038095593 0.19761014
-0.08315865 -0.056908775 0.17205636 0.045625873 0.058042385 -0.033536498 0.12136604 0.026458256
0.035476275 0.061963473 0.09408057 -0.0630181 0.22837943 -0.13735364 0.20870695 -0.050956607
0.2589555 0.14335111 0.043707505 0.17028241 0.11853448 -0.0026665414 0.14199328 -0.045254495
0.21274367 0.098183215 0.0014261231 0.12572472 0.04379282 0.14861116 0.06281004 -0.12486932
-0.05316969 0.05418843 0.19310299 0.086469 0.11443792 0.10785979 -0.07926393 0.087925665
0.1618004 -0.19007017 0.012249737 -0.056913085 0.0062504453 0.076878704 -0.020818053 -0.015870878
-0.06657585 0.037150443 0.15560147 0.035571616 0.077479534 0.1287521 0.036961872 0.19256093
0.023291852 0.14471117 -0.012910337 0.008487452 0.0025416734 0.04020714 0.088894956 -0.0066009974
-0.009845218 0.22103235 0.12438449 0.1437731 0.07096931 0.16417326 0.16597468 -0.041289434

fc2.weight f4 [4, 128]
00000000: bfaf 1dbd 49f4 583e a8e3 01be 6ecd ff3d
00000010: 832a 0dbe b688 57ba 6c41 933e dc40 05be
00000020: c482 193e ec4e 623d 04b5 0d3e 9fda 2f3e
00000030: 568a 32bd 18b0 3abe 2057 593e 1850 31be
00000040: fd38 9ebd d207 b63c 5637 8cbd d58b 9f3d
00000050: 4570 c23d d15f c8bd ca0c d73d 7586 44be
00000060: 3e50 b13c 0306 ec3d b59e 3b3d 7c5f f33d
00000070: ea9b acbd 0929 f13d c8a9 293e 370f dbbc
00000080: ffb5 b13d 7591 1abe e065 34bd 965d 5e3e
00000090: fed8 a93c f4cb 0d3e 1553 efbd c82e 2a3d
000000a0: e642 273e f095 2abc f263 e4bd 56f9 55be
000000b0: 6ae7 d9bd 5020 7d3d 0bcc b2bd 2afe 773d
000000c0: 1690 5d3d c65f c03d a462 783d be0e 99bd
000000d0: 82f4 47bd c57a 013e b86d 8abe e3d6 95bd
000000e0: 368c 06bd d85b 48bd fda2 21be 8f35 063c
000000f0: c921 f63c 6efa b8bd 1b55 85bd ae11 81bd
00000100: d41a 2abd 1825 17bd 5247 8dbd 99bd c6bd
00000110: 536a 463e 9375 683d caba 823d 2f5e 453b
00000120: 6ec1 c13d 3938 e53c 2bcb 6b3e b106 03be
00000130: fb38 403e 1359 77bd d6e3 563e d552 b2bd
00000140: 0a8e f83c 47f6 05bd be21 48bc 122f 00bd
00000150: d824 843e b46e aa3e 7f10 293d ca0f 08bd
00000160: ce16 5c3e 6c35 3bbe 2ce7 613d 04d1 ecbd
00000170: 7cd6 93bd c2b0 bbbd 949b ffbd 8fe7 f63c
00000180: b482 c6bd 8314 08be d99f 873e 63b3 4ebb
00000190: bd63 7abd ffad 213e 541d 3b3d e660 173c
000001a0: 469d c2bd 618f eabd eac9 833b 8ec8 ccbd
000001b0: 8ca7 06be e48f 733e 915e b0bd 02fe 263e
000001c0: 3520 f5bd c09c 4c3d e67e 61bc 9fbc c2bd
000001d0: ae1e d1bd 7b73 363e 3921 093c 3bf5 3a3d
000001e0: d9d7 cf3b bc57 0cbe 7363 17be d26d a2bb
000001f0: d7ca 15be f1de 6b3e c1ca 0e3e 0d22 6ebc
00000200: b5f4 b7bd afef ccbc 7d23 1ebe 6b18 0c3e
00000210: 88d3 1abe d81f 5f3d 0acf 4cbd 0884 17be
00000220: 73f0 123e 3975 163e 3763 743d 401a 093c
00000230: 8520 b8bd 2f3c 18be 494e 7fbd b8d7 dbbc
00000240: 1cce 00be 2984 323e ce42 50bd 0607 713e
00000250: 6593 b4bd a1d3 76bd f913 143e 8b41 8a3b
00000260: 1b2c 17be 84d7 65be 5b32 143e d92c 993d
00000270: b4ac bdbd 42d9 3ebe 5d26 7cbd 2b59 0dbd
00000280: 9a94 db3b d9e2 35be d121 26be ff2d 96bd
00000290: 08b6 bb3d 3e1e e7bd c42c eebb 2a52 2ebe
000002a0: 9955 43be dbb5 00be 0f58 39bd a08f e6bc
000002b0: 2d70 08be 338c 02bd 63b1 26be ec3b 51be
000002c0: ab7b 1dbe 6abe 0cbe 416b b93d 65fe 203e
000002d0: 1a0b 6ebd 0f08 bdbc cff4 dcbb 5f75 31be
000002e0: 3f48 2dbd bb7c 4ebc bbe5 5ebd e2c6 12be
000002f0: e8ec 15bd c269 fcbc 72b0 0dbe b555 27be
00000300: 030b 23be 3c4e a2bd ba93 a3bd 5268 d9bd
00000310: 4e08 003d da97 f93c 6ef1 26be 6b36 b8bd
00000320: f4ec 1c3d 00e2 58bd a624 69bc a8ab c2bc
00000330: 170e 483e c638 20be 3c31 b5bd ee45 17be
00000340: a2b4 32be c46c 7abe 0634 19be faee 6abe
00000350: 4344 f73c c2e3 cc3a 076a 0ebd 08b9 01bc
00000360: 46df 78bd 6436 eebd 09c7 74bd b003 a7bd
00000370: 98d5 29be f7c6 12be 94ae a1bc 0b41 25be
00000380: 37c2 36be b778 803d 8dd4 0bbe 6e99 633e
00000390: 9720 423c cdaa afbd b010 ccbd 7337 2a3d
000003a0: 31a3 18bd a4cd 04be fc82 76bd 20fe 10be
000003b0: 92ee 20bd 26d1 a3bc 78f7 53be ea40 28be
000003c0: 67de 4ebe 69f3 7abd 8f83 eebd 89ee f9bd
000003d0: ed05 2fbe 414a 763e 1b8c f0bc c558 32bc
000003e0: 96ba c4bd a2de e6bd b487 25be 1c5f b6bd
000003f0: 9584 17be 07af 01be 5589 4d3e 1394 b83c
-0.038497683 0.21186937 -0.126845 0.124903545 -0.13785748 -0.00082219706 0.2876085 -0.13013023
0.1499129 0.055251047 0.13838583 0.17173241 -0.04358896 -0.18231237 0.21224642 -0.1731571
-0.077257134 0.022220526 -0.06846492 0.07790343 0.0949407 -0.097839005 0.10500486 -0.19191916
0.021644708 0.11524584 0.04580565 0.118834466 -0.08428176 0.11775405 0.16568673 -0.026740653
0.08677291 -0.1509455 -0.044042468 0.21715388 0.020733353 0.13847333 -0.116857685 0.04154852
0.16334113 -0.010411724 -0.111518756 -0.20895895 -0.10639842 0.061798394 -0.08730324 0.060545124
0.05409249 0.09393267 0.060640946 -0.07473515 -0.048817165 0.12644489 -0.27036834 -0.07316377
-0.03284856 -0.048915714 -0.15784831 0.00819148 0.030045407 -0.09032141 -0.06510373 -0.063022
-0.04152949 -0.03690061 -0.06898369 -0.09704132 0.19376497 0.056752753 0.063832834 0.0030115952
0.09460722 0.02798091 0.23026721 -0.12795521 0.18771736 -0.060387682 0.2098535 -0.08707205
0.030341167 -0.03270557 -0.012215076 -0.03129489 0.2580936 0.33287585 0.041275498 -0.033218183
0.21493074 -0.18282098 0.055152103 -0.11563304 -0.07218644 -0.09164573 -0.12480846 0.030139713
-0.096928984 -0.13289075 0.26489142 -0.0031540028 -0.061130274 0.1578903 0.045682266 0.009239411
-0.09502654 -0.114531286 0.0040218728 -0.0999919 -0.13149852 0.23785359 -0.08611787 0.16307834
-0.11969034 0.049954176 -0.013763165 -0.09508633 -0.1021093 0.1781749 0.008369737 0.045644026
0.0063428697 -0.13705343 -0.1478403 -0.0049569393 -0.14628159 0.23034264 0.13944532 -0.0145344855
-0.08982221 -0.025016634 -0.15443225 0.1368119 -0.15119755 0.054473728 -0.050002135 -0.1479646
0.14349537 0.14693154 0.05966493 0.008368075 -0.089905776 -0.14866708 -0.062330518 -0.026836261
-0.12578624 0.17433228 -0.05084496 0.23537835 -0.08817176 -0.06026042 0.14460744 0.004219239
-0.14762919 -0.22445494 0.14472334 0.07479257 -0.09261456 -0.18637565 -0.061560024 -0.034508865
0.0067010643 -0.17762317 -0.16223837 -0.07332992 0.09165579 -0.11285065 -0.00726852 -0.1702353
-0.19075622 -0.12569372 -0.045249995 -0.028144658 -0.13324042 -0.031871986 -0.16278605 -0.20433015
-0.15379207 -0.13744512 0.0905366 0.15722044 -0.058116056 -0.023075132 -0.0067430506 -0.1732993
-0.042305227 -0.01260298 -0.054418307 -0.1433368 -0.036602885 -0.030812148 -0.1383684 -0.16341288
-0.1592217 -0.07925078 -0.07987161 -0.10615601 0.03125792 0.030467916 -0.16303036 -0.089947544
0.038311914 -0.052949905 -0.014229929 -0.023763493 0.19536625 -0.15646657 -0.08847281 -0.1477277
-0.17451718 -0.24455553 -0.14961252 -0.22942725 0.030183917 0.0015631842 -0.034769084 -0.00791765
-0.060759805 -0.11631468 -0.059760127 -0.08155 -0.16585386 -0.14333712 -0.019736566 -0.16138093
-0.17847525 0.062730245 -0.136553 0.22226498 0.01184859 -0.085774995 -0.099641204 0.041556787
-0.037265006 -0.1296907 -0.06018351 -0.14159441 -0.03929002 -0.01999719 -0.2069987 -0.16431013
-0.20202027 -0.06126729 -0.116461866 -0.122037 -0.17092104 0.24051763 -0.029363682 -0.010885422
-0.09605901 -0.112729326 -0.16165048 -0.089048594 -0.1479667 -0.12664424 0.2007192 0.022531545

fc2.bias f4 [4]
00000000: d6d2 c03d 941a 0abe f740 f03c df13 1e3b
0.09415214 -0.13486701 0.029327853 0.002412073
