EI_intro/checkpoint/stable_agent.pth (torch, 41849 bytes, 5 tensors)

embedding.weight f4 [16, 64]
0	0xbe326424	-0.17421013
1	0xbf8b424c	-1.0879607
2	0x3fddfb14	1.7342248
3	0x3e8dc347	0.27688047
4	0xbf9daf22	-1.2319071
5	0x3e885e4d	0.26634446
6	0xbf6e43bb	-0.930721
7	0xbdfc368a	-0.1231509
8	0x3f9f51dc	1.2446856
9	0xbe8d7418	-0.27627635
10	0xbda2b6f0	-0.07945049
11	0x3f9129ce	1.1340883
12	0x3ff4eead	1.9135338
13	0x3e226649	0.15859331
14	0xbf353759	-0.7078758
15	0x3de5d156	0.11221568
16	0x3fe7df22	1.811497
17	0xbf2c79a9	-0.6737314
18	0x4026be66	2.605371
19	0xbfb7f37e	-1.4371183
20	0xbfe46cee	-1.7845743
21	0x3edded23	0.43344983
22	0x3d4957cf	0.049156006
23	0x3f9de8ef	1.2336711
24	0x3f3b4ae8	0.7316117
25	0xbf53eeb8	-0.8278613
26	0x3f917b65	1.1365782
27	0xbf8f7103	-1.1206363
28	0xbf66ab58	-0.901052
29	0xbf8098ef	-1.0046672
30	0x3fa6c371	1.3028394
31	0xbf30ee5a	-0.69113696
32	0x3f407336	0.751758
33	0xbf8acf57	-1.0844525
34	0xbed87221	-0.42274573
35	0xbfa2e125	-1.2724959
36	0xbfcb53b9	-1.5884925
37	0xbf460db6	-0.7736467
38	0x3f043181	0.51638037
39	0xbf41fda0	-0.75777626
40	0x3e88b17f	0.2669792
41	0x3f73b00f	0.9519052
42	0x3cf2df80	0.029647589
43	0x3f1a9267	0.6037964
44	0xbf35f068	-0.71069956
45	0xbf4136e2	-0.7547437
46	0xbe7989da	-0.24368992
47	0x3faba1db	1.3408769
48	0xc01258d7	-2.2866724
49	0x3dc23ef9	0.09484667
50	0x3ff8fcee	1.9452188
51	0x3ee48687	0.44633886
52	0x3ee23dab	0.44187674
53	0xbf5fbcd3	-0.873975
54	0x3ecccf44	0.4000188
55	0xbe0291ad	-0.12750883
56	0x3f97b1d3	1.1851143
57	0xbfb4d43f	-1.4127272
58	0xbe3659e0	-0.17807722
59	0x3f9e3213	1.2359031
60	0xbf286c3d	-0.6579016
61	0x3f546d33	0.82979125
62	0x3f30f935	0.6913026
63	0x3e26c408	0.16285717
64	0x3dbba8f4	0.091630846
65	0xbf68cd75	-0.909385
66	0x3fe557fa	1.7917473
67	0x3edae577	0.42753193
68	0xbd48f640	-0.049062967
69	0x3e91f12b	0.2850431
70	0xbdde4c54	-0.10854402
71	0xbf231539	-0.6370426
72	0x3ea067b1	0.3132911
73	0xbd1df719	-0.03856573
74	0xbd982e56	-0.07430713
75	0xbef9be02	-0.48777777
76	0xbed02125	-0.40650287
77	0xbf5346cc	-0.825299
78	0xbec9e3b0	-0.39431524
79	0x3f5bde7a	0.8588635
80	0x3ef08c75	0.4698216
81	0xbfebfc8f	-1.843645
82	0x3f9d3d4b	1.228433
83	0xc0085dc8	-2.130724
84	0xbe2f3f76	-0.17114052
85	0xbecdc1c4	-0.40186894
86	0xbf8a6db3	-1.0814728
87	0xbf85b2b5	-1.0445162
88	0x3f0124ca	0.5044676
89	0xbfd63969	-1.673627
90	0x3ea7ecbc	0.32797801
91	0xbff3c6f7	-1.9045094
92	0xbf8cf08e	-1.1010911
93	0xbfbcf921	-1.4763528
94	0x3f842dc6	1.0326469
95	0xbfe472a6	-1.7847488
96	0x3f1afdbc	0.6054342
97	0xbfe62485	-1.7979895
98	0x3e994a41	0.29939464
99	0x3e08a0e6	0.13342628
100	0x3fb93c08	1.4471445
101	0xbf1eb580	-0.619957
102	0xbd64c25b	-0.055849414
103	0x3f84d23e	1.0376661
104	0xbf5a9ee1	-0.8539868
105	0xbd34bf24	-0.0441276
106	0xbfdb2118	-1.7119474
107	0x3d9895ac	0.07450423
108	0xbf0c729b	-0.54862374
109	0x3f664c3d	0.8996008
110	0xbd7d7ee5	-0.061888594
111	0xbf43615c	-0.76320434
112	0x3f61f368	0.88262033
113	0xbf421b52	-0.7582294
114	0xbeb29410	-0.34878588
115	0xc018bae6	-2.3864074
116	0x3f0c6dac	0.54854846
117	0x3fb7118f	1.4302233
118	0xbf188162	-0.5957242
119	0xbf8b9979	-1.0906211
120	0x3fd2ee14	1.6478906
121	0x3f5b4398	0.85650015
122	0xbe94d0cb	-0.29065546
123	0xbf29ee14	-0.66378903
124	0xbf81b518	-1.013339
125	0xbf18a4b9	-0.59626347
126	0xbe5cbf47	-0.21557342
127	0x3d229efd	0.039702404
128	0xbecb47a3	-0.39703092
129	0x3ed5852c	0.41703165
130	0x3f67a1bf	0.9048118
131	0x3ed5c1fb	0.41749558
132	0xbeb3ceaa	-0.3511861
133	0xbdd9069d	-0.105969645
134	0xbe1f4088	-0.1555196
135	0x3fba182f	1.453863
136	0xbc349a9c	-0.01102319
137	0x3ebd60ff	0.36988065
138	0x3fa90500	1.3204651
139	0x3f0aae16	0.54171884
140	0xbf2387ec	-0.63879275
141	0x3f238712	0.63877976
142	0xbfae50c5	-1.3618399
143	0xbeaf2c14	-0.34213316
144	0xbfdf5a47	-1.7449425
145	0x3f4082e6	0.75199735
146	0xc000032e	-2.000194
147	0x3fcfb6fe	1.622772
148	0x3deaa185	0.11456589
149	0x401158f1	2.2710536
150	0x3f48ad07	0.7838902
151	0xbdd9e0a3	-0.10638549
152	0x3d57c3a5	0.052676816
153	0xbeeeca16	-0.46638554
154	0xc025be3e	-2.5897365
155	0x3e065a3e	0.13120362
156	0x3e97dd1c	0.2966088
157	0xbe135237	-0.14386831
158	0xbf4198a6	-0.7562355
159	0xbe8be89f	-0.27325913
160	0x3eb3ffec	0.3515619
161	0x3f8206c8	1.015832
162	0xbd9791ea	-0.07400878
163	0xbf9c40b6	-1.2207248
164	0x3f838f4d	1.0278107
165	0xbfb990ff	-1.4497374
166	0x3f57d23b	0.8430516
167	0xbfc5bd76	-1.5448444
168	0xbf90e5a9	-1.1320087
169	0x3eaa013a	0.3320406
170	0xbfae7e69	-1.3632327
171	0x3fa7d433	1.3111633
172	0xbedc965f	-0.43083474
173	0xbf207823	-0.62683314
174	0xbfa0b671	-1.2555677
175	0xbfcf2196	-1.6182125
176	0xbe4e6229	-0.20154633
177	0xbf0c94a4	-0.5491431
178	0xbf688dcd	-0.9084137
179	0xbf756e9c	-0.958719
180	0xbeac5e0c	-0.33665502
181	0x3f16b7eb	0.58874387
182	0xbfb4a69b	-1.4113344
183	0xbf96d25e	-1.1782949
184	0x3fc46931	1.5344602
185	0xbfa4b238	-1.2866888
186	0xbfa8269e	-1.3136785
187	0xbe9adb5d	-0.30245486
188	0x3ed90b4a	0.42391425
189	0x3f15aa4f	0.58462995
190	0x3fb33fdc	1.4003863
191	0xbebb8b57	-0.36629745
192	0xbeba0090	-0.36328554
193	0x3f4165ed	0.7554615
194	0x3f976b11	1.1829549
195	0xbe6f7168	-0.23383105
196	0x3f22bedd	0.63572484
197	0xbebb2404	-0.36550915
198	0xbf191b67	-0.5980744
199	0xbf9add45	-1.2098776
200	0x3f60a5f9	0.87753254
201	0x3f271912	0.6527263
202	0xbf27d824	-0.6556418
203	0x3d60df7c	0.05490063
204	0xbf40ff1b	-0.7538926
205	0x3fa64d82	1.2992404
206	0x3dfaf069	0.12252886
207	0xbf717ad1	-0.9432803
208	0xc00461f7	-2.0684793
209	0xbf6ea24c	-0.93216395
210	0xbf8f55c6	-1.1198051
211	0x3d4fbca9	0.05071703
212	0x3e1c6301	0.15272142
213	0x3f6907ed	0.9102772
214	0x3f711b54	0.94182324
215	0x3f507283	0.8142473
216	0xbe7a5ec6	-0.24450216
217	0x3e851f94	0.26000655
218	0x3f1b0ea2	0.605692
219	0x3fb1e8be	1.3899152
220	0xbe261744	-0.16219813
221	0x3f2435f4	0.64144826
222	0x3f40ccdb	0.75312585
223	0x3f9cd05a	1.2251084
224	0x3f6603b6	0.8984941
225	0xbfd795fb	-1.6842645
226	0x3fc364c3	1.5265125
227	0xbfca2b8f	-1.5794543
228	0x3ed761a8	0.42066693
229	0x3db90237	0.090336256
230	0x400a81cc	2.1641722
231	0xbd8216b2	-0.06351985
232	0xbd1e4419	-0.03863916
233	0x3ea665fa	0.32499677
234	0xbf1e0ebc	-0.6174123
235	0xbfb7cefe	-1.4360044
236	0x3f62aac6	0.8854183
237	0xbe0b9263	-0.13630061
238	0x3f4bcfbd	0.7961386
239	0xbf123fbc	-0.571285
240	0x3f6c2e93	0.92258567
241	0x3ccb8e5c	0.024848156
242	0xbf997d75	-1.1991411
243	0x3e6fdc41	0.23423864
244	0x3fae3fbc	1.36132
245	0x3ff2971d	1.8952366
246	0xbf33d0f0	-0.7024069
247	0xbfc3eaa4	-1.5305982
248	0xbf890ea9	-1.0707599
249	0x3f7289ed	0.9474171
250	0xbf3b0376	-0.73052156
251	0xbe53592f	-0.2063949
252	0x40061b29	2.0954077
253	0xbc9b5c88	-0.01896502
254	0x3dc8d3de	0.098060355
255	0xbf912985	-1.1340796

fc1.weight f4 [128, 64]
0	0xbdea0887	-0.11427408
1	0xbdd182e4	-0.102300435
2	0x3dac726b	0.08420261
3	0xbe72ffd3	-0.23730402
4	0x3df3ffe0	0.11914039
5	0xbd956c81	-0.07296086
6	0xbdf2e343	-0.11859753
7	0x3cc701c6	0.024292838
8	0x3d1195fc	0.035543427
9	0xbe8700ff	-0.26367947
10	0x3d7ea1d2	0.062166043
11	0xbe7cf3b3	-0.24702339
12	0xbe3b6575	-0.18300422
13	0x3dbc0fe5	0.09182719
14	0xbc7f56fd	-0.0155847045
15	0xbc860d93	-0.016363895
16	0xbdffb027	-0.1248477
17	0x3e23d49d	0.15999074
18	0xbde145f3	-0.1099967
19	0xbd925425	-0.071449555
20	0x3e0934c4	0.13399035
21	0xbc04eabc	-0.008112606
22	0xbddab868	-0.10679704
23	0x3e7ad0b4	0.24493676
24	0x3d142df4	0.036176637
25	0x3df1fb50	0.11815512
26	0xbd8c62f1	-0.06854809
27	0xbdb99e98	-0.090634525
28	0xbdc762ed	-0.097356655
29	0xbd55e8d6	-0.052224003
30	0xbdf2c197	-0.118533306
31	0xbdcf653b	-0.1012673
32	0xbd9c2a46	-0.076252505
33	0x3da1818b	0.078860365
34	0xbd0d0b24	-0.034434453
35	0x3ceab2ce	0.028649714
36	0x3df9b4f6	0.12192719
37	0xbd87d879	-0.06633086
38	0xbe9077f1	-0.28216508
39	0xbe12defe	-0.14342877
40	0xbe7045d4	-0.23464137
41	0x3dc62b7c	0.09676263
42	0x3d82d21d	0.06387732
43	0x3e84a1b6	0.25904626
44	0xbe3a0c69	-0.18168797
45	0x3dc9879e	0.0984032
46	0x3e2c7520	0.16841555
47	0xbeb62d9f	-0.3558168
48	0xbd7b93ba	-0.06142018
49	0xbde56414	-0.11200729
50	0xbe3f9697	-0.18709789
51	0x3e3a6d4b	0.18205754
52	0xbe00e1ee	-0.12586185
53	0x3e92da58	0.28682208
54	0x3df95f76	0.12176411
55	0xbe6ddaa7	-0.2322794
56	0x3e33a98f	0.1754515
57	0xbd1ea970	-0.038735807
58	0xbe1688e5	-0.14700659
59	0x3e20a30d	0.15687199
60	0xbd88583b	-0.066574536
61	0x3e5f9051	0.21832396
62	0x3dff21d8	0.12457627
63	0x3e8b6bfd	0.27230826
64	0xbd95eccc	-0.07320556
65	0xbe1d110a	-0.15338531
66	0x3e49e913	0.19717817
67	0x3d7da259	0.061922405
68	0xbe1df40c	-0.15425128
69	0x3e03df6b	0.12878196
70	0xbd5b0ade	-0.05347716
71	0x3d8543f5	0.065071024
72	0x3da0417f	0.078249924
73	0xbd94b81d	-0.07261679
74	0xbde7b86c	-0.113144726
75	0xbe49f9ba	-0.1972417
76	0x3e511c87	0.20421039
77	0xbdc7046f	-0.097176425
78	0xbd7aaecc	-0.061201856
79	0x3da8b9d5	0.0823857
80	0xbdce477d	-0.10072229
81	0xbe31f085	-0.17376907
82	0x3e0d1566	0.13777694
83	0xbe34b7f6	-0.176483
84	0x3e01902b	0.12652652
85	0xbbeb3c39	-0.00717881
86	0xbcf28693	-0.029605186
87	0xbdf2f771	-0.11863602
88	0x3dbf806d	0.09350667
89	0xbaf79e09	-0.0018891703
90	0xbb9a9c82	-0.004718364
91	0xbdb0fa7a	-0.086415246
92	0xbe3b7048	-0.1830455
93	0xbe309c0f	-0.17247032
94	0x3d4e56bb	0.05037568
95	0x3e0b7066	0.13617095
96	0x3d8483b6	0.06470434
97	0xbe404920	-0.18777895
98	0x3db75d3c	0.0895333
99	0xbdd36b15	-0.10323159
100	0x3e2a4126	0.16626415
101	0xbd9b7dfa	-0.075923875
102	0xbdd068ca	-0.10176237
103	0xbd823209	-0.063572
104	0x3d669a45	0.056299467
105	0xbc80be8e	-0.015715864
106	0xbd80403a	-0.0626225
107	0x3c2631ad	0.01014368
108	0x3cb6d8b2	0.022320125
109	0x3dd18943	0.10231259
110	0xba42085d	-0.0007401759
111	0x3d08b7de	0.033378474
112	0x3d81b41e	0.06333183
113	0xbb5abd98	-0.0033377167
114	0x3de70210	0.1127969
115	0xbe265f91	-0.16247393
116	0x3d49c057	0.049255695
117	0xbc096134	-0.008384991
118	0x3bb9d76c	0.0056714322
119	0x3d95ad5b	0.073084556
120	0x3d95eda1	0.07320715
121	0xbdefef2e	-0.11715542
122	0xbe53b957	-0.2067617
123	0x3e3c5428	0.18391478
124	0xbdff3676	-0.124615595
125	0xbd2f2e38	-0.042768687
126	0xbda90bc5	-0.08254198
127	0x3df19f7f	0.117979996
128	0xbe55df1f	-0.20885895
129	0xbe2facbf	-0.17155741
130	0xbd61bef5	-0.05511375
131	0x3d733af4	0.059382394
132	0x3d0d240d	0.03445821
133	0xbde67e02	-0.11254503
134	0x3e193ab0	0.14963794
135	0x3dd7bf8e	0.10534583
136	0xbdc352c3	-0.0953727
137	0x3e9e25b9	0.30888155
138	0xbd8692a0	-0.06570935
139	0x3cecf714	0.02892641
140	0xbc72919d	-0.014805225
141	0x3d5ddc15	0.054164965
142	0x3dbee7f3	0.093215846
143	0xbe5486ae	-0.20754501
144	0x3ca052eb	0.019570788
145	0xbe4aa228	-0.1978842
146	0x3d5014f5	0.050801236
147	0xbcc1aa42	-0.023640756
148	0x3da4145c	0.08011696
149	0xbe4401a5	-0.19141252
150	0x37bb70c4	2.2344648e-05
151	0xbe1f3762	-0.1554847
152	0x3decce0a	0.11562736
153	0xbc35c6c4	-0.011094753
154	0x3de37894	0.11106983
155	0x3e3232e8	0.17402232
156	0xbce1a56e	-0.027544703
157	0x3e762b49	0.2403995
158	0xbdfafaaa	-0.122548416
159	0x3c6e5779	0.014547222
160	0xba4cebf6	-0.00078171433
161	0x3c331102	0.010929348
162	0xbe4c1d8c	-0.19933146
163	0xbde57930	-0.11204755
164	0x3d0491ec	0.032365724
165	0x3e904da6	0.2818424
166	0x3e50f502	0.20405963
167	0x3dfd1ea1	0.123593576
168	0xbd369308	-0.044573814
169	0xbe005008	-0.1253053
170	0x3e7cbaf8	0.24680698
171	0x3dabc5e7	0.08387356
172	0xbd9c6e3f	-0.07638215
173	0xbe531f84	-0.20617491
174	0x3deb32a7	0.114842705
175	0xbe3c421a	-0.1838459
176	0xbd9d39c5	-0.07677034
177	0x3dda14bd	0.10648487
178	0xbdc26459	-0.09491796
179	0x3d8896bc	0.06669375
180	0x3e6dff2d	0.23241873
181	0xbda76bc9	-0.08174855
182	0xbcdec201	-0.027192118
183	0xbd30913f	-0.043107267
184	0xbe16e7e1	-0.14736892
185	0x3d150261	0.03637922
186	0x3d96c93a	0.073626
187	0xbe0c4044	-0.1369639
188	0x3cecfdc9	0.028929608
189	0xbd1d7b22	-0.038447507
190	0x3e3434cc	0.17598265
191	0x3d622e7c	0.055220112
192	0x3d6ab904	0.05730535
193	0xbdc2c080	-0.09509373
194	0x3e1d8af0	0.15385032
195	0x3e2c793f	0.16843127
196	0x3cda4807	0.026645673
197	0x3d983169	0.07431299
198	0xbe119d06	-0.14220056
199	0x3db0a5c6	0.08625369
200	0xbd51e66d	-0.05124514
201	0xbd84b808	-0.06480414
202	0x3e1fc605	0.15602882
203	0xbd03c522	-0.032170422
204	0xbe3f406c	-0.18676919
205	0x3e10f8ab	0.1415736
206	0xbd03e290	-0.03219849
207	0xbbe6b595	-0.0070406892
208	0xbd3ccd6b	-0.04609434
209	0x3e15eeb6	0.14641842
210	0xbe1b9bd7	-0.15196167
211	0x3d27311a	0.04081831
212	0xbde0880f	-0.10963451
213	0x3e519ae5	0.20469244
214	0xbb21d559	-0.0024693816
215	0x3e18d107	0.14923488
216	0x3d160bf3	0.03663249
217	0xbd99abe4	-0.07503489
218	0x3e086096	0.13318095
219	0x3dbbf1ed	0.09177003
220	0x3d7e524a	0.062090196
221	0x3d5327e5	0.05155172
222	0xbcf071f4	-0.029351212
223	0xbdb4a66d	-0.08820806
224	0x3ddae03e	0.10687302
225	0x3d08032b	0.033206146
226	0x3e14c1d8	0.1452707
227	0x3c8dae2b	0.017294964
228	0x3e3bab17	0.18326984
229	0xbcb4215c	-0.021988563
230	0xbc5a275c	-0.013315048
231	0xbe135ac2	-0.1439009
232	0x3cb0141b	0.021493962
233	0xba90e0a1	-0.0011053273
234	0xbdbb0de5	-0.091335095
235	0x3d7005f6	0.058599435
236	0xbd10772c	-0.0352699
237	0xbdec11c5	-0.11526827
238	0x3ce1482d	0.027500236
239	0xbde68d8f	-0.11257469
240	0x3d9d88ad	0.076920845
241	0xbd886830	-0.06660497
242	0xbd2f0165	-0.04272594
243	0xbb813b85	-0.003943863
244	0x3ddfff22	0.109373346
245	0x3e18bf7b	0.14916794
246	0xbd16b527	-0.036793854
247	0x3d1f57c4	0.03890206
248	0x3ddd95e2	0.108196035
249	0xbd2e1368	-0.042498976
250	0xbd4e6556	-0.05038961
251	0xbd823468	-0.06357652
252	0xbd962aac	-0.07332358
253	0xbdbf1180	-0.0932951
254	0x3df293bf	0.118445866
255	0xbe3a16f1	-0.18172814

fc1.bias f4 [128]
0	0x3e66c256	0.22535071
1	0x3db65371	0.08902634
2	0x3e8936bb	0.2679957
3	0x3d1727af	0.03690308
4	0x3d430734	0.04761429
5	0xb8dbff6e	-0.00010490311
6	0xbc82a074	-0.01594565
7	0x3d9a58d4	0.07536474
8	0x3d030f24	0.03199686
9	0x3dba14c3	0.09085991
10	0xbdaf4fe6	-0.08560161
11	0xbd7f24db	-0.062291007
12	0xbdb8203f	-0.089905255
13	0x3d5bf604	0.053701416
14	0x3de5e60f	0.11225521
15	0x3d9e4361	0.07727695
16	0x3e6470a4	0.22308594
17	0x3d76aaca	0.06022147
18	0x3da099bd	0.07841823
19	0x3d847771	0.06468094
20	0x3c89146c	0.01673337
21	0x3c0a9ce4	0.008460257
22	0xbd83752c	-0.06418833
23	0x3d608fc9	0.054824624
24	0x3d8403ef	0.06446063
25	0x3debb588	0.11509234
26	0x3e24197f	0.16025351
27	0xbd5852db	-0.052813392
28	0x3df79b11	0.120901234
29	0xbce098f3	-0.027416682
30	0x3dff1491	0.124550946
31	0x3d1e215e	0.03860604
32	0x3d82b931	0.06382979
33	0x3dd56bcc	0.10420951
34	0x3d9cfae5	0.07665042
35	0x3bf8d033	0.0075931787
36	0x3da3f704	0.08006099
37	0x3e0753b7	0.13215528
38	0x3d808d4d	0.06276951
39	0x3d7c9a36	0.061670505
40	0x3d1b0e10	0.037855208
41	0x3c197830	0.009367034
42	0x3ded4464	0.1158531
43	0xbd73d7ec	-0.05953209
44	0xbd5767d0	-0.052589238
45	0x3d16970c	0.036765143
46	0x3e121f23	0.1426969
47	0x3e2bfcef	0.16795705
48	0xbd6a2b05	-0.057169933
49	0x3e3cd3fe	0.18440244
50	0x3d0e0479	0.034672234
51	0x3d7d42b5	0.061831195
52	0x3e098e70	0.13433242
53	0xbc3891f2	-0.011265265
54	0xbc770556	-0.015076956
55	0x3d401290	0.046892703
56	0xbd07ecc5	-0.033184785
57	0xbdb2126f	-0.08694922
58	0xbcc93717	-0.024562402
59	0x3d52090f	0.05127817
60	0xbbd06fe6	-0.0063609956
61	0xbe490aca	-0.19633022
62	0x3c56d874	0.01311313
63	0x3e8067b5	0.25079122
64	0xbd6b2891	-0.057411734
65	0xbd1d7566	-0.038442038
66	0xbd4c345a	-0.049854614
67	0xbd62b1ee	-0.05534547
68	0xbddc102b	-0.10745271
69	0xbc5732e5	-0.013134693
70	0xbd829768	-0.06376535
71	0x3de9df11	0.114195
72	0x3db3fa50	0.08787978
73	0xbc3d92a9	-0.011570611
74	0x3d6e5f1b	0.05819617
75	0x3e8471a4	0.2586795
76	0x3e33909d	0.17535634
77	0xbb95f278	-0.0045760237
78	0x3cf70165	0.030152032
79	0x3e041fb7	0.12902723
80	0x3e756687	0.23964892
81	0x3d33f52a	0.04393498
82	0x3dd60307	0.10449796
83	0x3e761f4e	0.2403538
84	0x3e1255c7	0.14290534
85	0x3d9e5be1	0.07732368
86	0x3e11c7c2	0.14236358
87	0x3d6acaf5	0.05732246
88	0x3e1deeef	0.15423177
89	0xbce2700c	-0.027641319
90	0x3d1e5820	0.03865826
91	0x3d48ea2b	0.049051445
92	0x3ca2bb8c	0.01986482
93	0x3d677c4c	0.056515023
94	0x3db3237c	0.087470025
95	0x3de73252	0.11288895
96	0x3e2c139b	0.16804354
97	0x3e0fbfc5	0.14037998
98	0xbd876fe0	-0.06613135
99	0xbcab96b6	-0.020945888
100	0x3e495d95	0.19664605
101	0x3def5d37	0.11687701
102	0x3d8f7ba1	0.07006002
103	0xbd8cc8a0	-0.06874204
104	0xbd41829e	-0.047243707
105	0x3e1aa91d	0.15103574
106	0x3e83cc03	0.25741586
107	0xbd6281da	-0.055299617
108	0x3e50ee08	0.20403302
109	0x3dced8eb	0.100999676
110	0x3cb032df	0.021508632
111	0xbdfb1ae5	-0.12260989
112	0x3e2f3a9b	0.171122
113	0x3d1a9aaf	0.037745174
114	0x3de324f2	0.11091031
115	0x3e28057b	0.1640834
116	0xbd0855bb	-0.033284884
117	0xbbb8b3a3	-0.0056366487
118	0x3de3ed1f	0.11129212
119	0x3e4c6caa	0.19963327
120	0xbd4a5954	-0.049401596
121	0x3c655a2e	0.013998551
122	0x3d60fcba	0.05492852
123	0x3e06272e	0.13100883
124	0x3ccfe0a7	0.025375677
125	0xbdd0b745	-0.10191206
126	0x3e0a82c8	0.13526452
127	0x3e663bdd	0.22483774

fc2.weight f4 [4, 128]
0	0x3e4c20c7	0.19934379
1	0xbd179390	-0.03700596
2	0x3e5cf327	0.2157713
3	0xbc5b0c4d	-0.013369632
4	0xbe14cf20	-0.14532137
5	0xbd8ab5a6	-0.06772928
6	0xbcc82bbf	-0.024434922
7	0xbe54a6f4	-0.20766813
8	0xbd7a2b00	-0.061076164
9	0xbe07e9d8	-0.13272798
10	0xbcb202af	-0.021729795
11	0xbdc95535	-0.09830705
12	0x3d9cc480	0.07654667
13	0xbde8d472	-0.11368646
14	0xbdab17b6	-0.08354132
15	0xbcb034b5	-0.021509508
16	0x3e224180	0.15845299
17	0x3e15fe83	0.1464787
18	0x3e178497	0.14796673
19	0xbde84dfc	-0.11342999
20	0xbd26231d	-0.04056083
21	0xbdd39029	-0.10330231
22	0x3e1e21c2	0.15442565
23	0x3daa06e5	0.08302096
24	0xbda2e970	-0.07954681
25	0x3b3d5e27	0.002889523
26	0xbde42c20	-0.11141229
27	0x3db86b26	0.09004812
28	0x3e7202f5	0.2363394
29	0xbd9b5e5b	-0.07586356
30	0x3e297726	0.16549358
31	0xbdd46230	-0.1037029
32	0x3e3f90b7	0.18707548
33	0xbd2731c1	-0.040818933
34	0x3d4895b9	0.04897091
35	0xbdbd100f	-0.092315786
36	0xbc660ef7	-0.014041654
37	0xbdb9e247	-0.09076362
38	0x3e4a391a	0.19748345
39	0x3e130502	0.14357379
40	0x3d08b9ab	0.03338019
41	0x3d055fd7	0.032562103
42	0xbd9d77f5	-0.076888956
43	0xbd803341	-0.06259776
44	0x3d4d22c4	0.050081983
45	0x3dcdb6ad	0.10044608
46	0xbd9fb373	-0.07797899
47	0x3e328ddb	0.17436926
48	0xbe3b933c	-0.18317884
49	0xbd86bdbe	-0.06579159
50	0xbe310ae6	-0.17289314
51	0xbc6c8d6d	-0.014438015
52	0xbe2389a6	-0.15970477
53	0xbceb871e	-0.028750952
54	0x3d17a462	0.037022002
55	0xbd980409	-0.07422645
56	0xbdd2d6f0	-0.10294902
57	0xbde9b4c5	-0.11411432
58	0x3def6ff1	0.11691273
59	0x3e37adde	0.17937419
60	0xbda99838	-0.082809865
61	0x3d47dcf5	0.048794705
62	0xbe06ecb4	-0.13176233
63	0x3e87c54e	0.2651772
64	0xbdc7270d	-0.09724245
65	0x3d194be5	0.037425894
66	0xbd9fcc81	-0.07802678
67	0xbc4c2da8	-0.012462057
68	0x3d4c2636	0.04984113
69	0xbdde54db	-0.10856029
70	0xbd5e9fce	-0.05435162
71	0x3d565187	0.052323844
72	0xbc9a62fe	-0.018846031
73	0xbdac65a9	-0.08417828
74	0xbd95d193	-0.07315364
75	0x3e032a53	0.12809114
76	0xbd17fae5	-0.037104506
77	0x3e22d963	0.15903239
78	0x3db41365	0.08792762
79	0x3d535c95	0.051601965
80	0x3e7eb3ae	0.2487323
81	0xbd6bbdeb	-0.057554167
82	0x3e57cce8	0.2107426
83	0x3d1c9c2c	0.038234875
84	0xbc9a3d0c	-0.018827938
85	0x3de6eba4	0.11275414
86	0xbde9ef29	-0.11422569
87	0x3db77bd2	0.08959164
88	0xbdffd0c7	-0.12490993
89	0x3ded5ca9	0.11589939
90	0x3d8fd037	0.07022136
91	0x3dc4ff86	0.0961905
92	0xbd91c247	-0.071171336
93	0xbe2edf9f	-0.17077492
94	0x3d9320b4	0.07183972
95	0x3dac3624	0.08408764
96	0xbd9ccd90	-0.076563954
97	0x3e841d17	0.25803444
98	0xbcbebf83	-0.02328468
99	0x3e2734fd	0.16328807
100	0x3d544685	0.051825065
101	0xbcd9dd31	-0.02659473
102	0x3ddfa28c	0.10919675
103	0x3a5d529d	0.00084427913
104	0xbde1c4ae	-0.11023842
105	0x3d97430e	0.073858365
106	0x3e937c5e	0.28805822
107	0xbdf3901b	-0.1189272
108	0x3dc7f2c9	0.097631045
109	0xbcaae7c9	-0.020862477
110	0xbdc13bfb	-0.094352685
111	0xbe6df919	-0.23239554
112	0x3e917376	0.28408402
113	0x3e988727	0.29790613
114	0x3daffeba	0.08593507
115	0xbe36f849	-0.17868151
116	0xbe384605	-0.1799546
117	0xbdde6b94	-0.10860363
118	0x3e6d654b	0.23183171
119	0x3d52344a	0.051319398
120	0x3cdf6040	0.027267575
121	0xbd0befa0	-0.03416407
122	0xbdb3f5df	-0.087871306
123	0x3cab8132	0.020935629
124	0xbd30f4a0	-0.043202043
125	0xbb1b3228	-0.0023681019
126	0x3d79ef7c	0.061019406
127	0x3e066d50	0.13127637
128	0xbe1a50a0	-0.15069818
129	0xbd524b8b	-0.051341575
130	0xbdbb1226	-0.09134321
131	0xbe30edf5	-0.17278273
132	0xbe045d8c	-0.1292631
133	0xbe00a822	-0.12564138
134	0xbe3025aa	-0.17201868
135	0xbddbfff4	-0.107421786
136	0xbd498091	-0.049194876
137	0xbe042926	-0.12906322
138	0xbe236079	-0.1595477
139	0xbdd23743	-0.102644466
140	0xbd44750d	-0.04796319
141	0x3c3e6c6b	0.011622529
142	0xbdbc7da0	-0.092036486
143	0xbc980676	-0.018557768
144	0x3e43acd5	0.19108899
145	0xbe766bc3	-0.24064545
146	0xbd6bfc9e	-0.05761396
147	0xbd45666a	-0.048193373
148	0xbe686f83	-0.22698788
149	0xbe3c9024	-0.1841436
150	0xbd97185d	-0.07377694
151	0xbe132daf	-0.14372896
152	0xbdad54b5	-0.08463422
153	0xbdd8a771	-0.10578812
154	0xbe138b50	-0.14408612
155	0x3cd32059	0.02577226
156	0x3d195909	0.037438426
157	0xbe1246ee	-0.1428487
158	0xbd551943	-0.052026045
159	0x3cca1f9c	0.024673276
160	0xbe44a281	-0.19202615
161	0xbe0863a3	-0.13319258
162	0x3ce51d8b	0.027968189
163	0xbd98a7a2	-0.074538484
164	0xbddf4be9	-0.109031506
165	0xbdeffd1e	-0.117182
166	0xbe7ba0d7	-0.24573074
167	0xbd589090	-0.05287224
168	0xbe6ccceb	-0.23125045
169	0xbe2cce65	-0.16875608
170	0x3d6d9acd	0.058008958
171	0xbd3eb836	-0.046562396
172	0xbe5af651	-0.21383025
173	0xbdeea2dd	-0.116521575
174	0xbe1d56e8	-0.15365183
175	0xbc00abbf	-0.007853447
176	0xbe2195c7	-0.15779792
177	0xbdbf8276	-0.09351055
178	0xbe3c873e	-0.18410966
179	0x3cde2e12	0.027121577
180	0xbe1f0605	-0.1552964
181	0x3e048c6b	0.1294419
182	0xbe1aa61a	-0.15102425
183	0xbd77b20a	-0.060472526
184	0xbe07e298	-0.13270032
185	0xbd852ca0	-0.06502652
186	0xbd1abea5	-0.03777947
187	0xbd131369	-0.035907183
188	0xbdea6595	-0.114451565
189	0x3d6c5582	0.057698734
190	0xbcba1866	-0.022716712
191	0xbae3b894	-0.0017373734
192	0xbe4fe493	-0.20302038
193	0x3d00bb06	0.03142836
194	0xbde17c91	-0.11010087
195	0xbd370315	-0.044680674
196	0x3da4c43a	0.0804524
197	0xbe65b6ae	-0.22432968
198	0xbd4a005b	-0.049316745
199	0xbc9376b0	-0.01800093
200	0xbdae8ddc	-0.08523151
201	0xbc165c65	-0.009177302
202	0xbe1ac97c	-0.15115923
203	0xbe3cb3e2	-0.18427995
204	0xbd0e365c	-0.03471981
205	0xbe2ee77a	-0.17080489
206	0xbc60ae69	-0.013713458
207	0x3e6d868d	0.23195858
208	0x3e89c55a	0.2690838
209	0x3cf970ce	0.030449297
210	0xbdf61f13	-0.12017646
211	0xbe2457c1	-0.160491
212	0xbd92af4a	-0.0716234
213	0x3dde7082	0.10861303
214	0xbdef38c5	-0.1168075
215	0x3ea39fa4	0.31957734
216	0xbe1cfab2	-0.15330008
217	0xbe61cab8	-0.22049987
218	0xbe3cc7da	-0.18435612
219	0xbd91c2bd	-0.071172215
220	0xbc98d317	-0.018655343
221	0xbc8494d2	-0.016184244
222	0x3dcca09b	0.099915706
223	0xbe051a53	-0.12998323
224	0xbe573c61	-0.21019126
225	0x3d8358d8	0.0641343
226	0xbe572ec3	-0.21013932
227	0xbd83a736	-0.06428377
228	0x3e08311e	0.13299987
229	0xbe548152	-0.20752457
230	0xbd890fd4	-0.06692472
231	0xbdbf7fee	-0.093505725
232	0xbd5f4f6a	-0.054519095
233	0x3e8b3c41	0.27194408
234	0x3c15a51c	0.009133603
235	0xbd492f11	-0.04911715
236	0xbe93e335	-0.28884283
237	0xbe389e37	-0.18029104
238	0xbe0539dd	-0.13010354
239	0xbe7c52a3	-0.24640898
240	0xbe5a0c97	-0.21293865
241	0xbe222e1a	-0.15837899
242	0x3df0cdaa	0.11757977
243	0xbdfd71fa	-0.12375255
244	0xbe21cb9f	-0.15800332
245	0xbea0997b	-0.31367096
246	0xbd841ea2	-0.06451155
247	0x3d5374f5	0.05162521
248	0xbdfb64c2	-0.122750774
249	0xbdc1230b	-0.09430512
250	0xbe36f085	-0.17865188
251	0xbdf2fe29	-0.118648835
252	0x3e4adb30	0.19810176
253	0xbb6e1626	-0.003632912
254	0x3e7f7bd8	0.24949586
255	0xbe0dafd8	-0.1383661

fc2.bias f4 [4]
0	0x3c3a6e35	0.0113788145
1	0x3cb3c783	0.02194572
2	0x3c6a7a4d	0.014311385
3	0x3dab4567	0.08362847
