EI_intro/q_learning_flexible_agent.pth (torch, 912048 bytes, 14 tensors)

feature_extractor.cnn.0.weight f4 [32, 1, 3, 3]
00000000: a614 d1bd 28ce 1a3e 8004 5cbe 14a1 a13d
00000010: 0626 243e 90e4 b1bd 60a9 96be 7035 60be
00000020: 81ec 813e 860c 5cbe 2c33 eb3d cc6b cbbd
00000030: 0399 77be 88da 0d3e d0d8 acbd 7097 d8bd
00000040: c21b 573e 3c01 88bd b9ce a03e 4dfc a73e
00000050: 28a1 48bd eaab 2c3e 5ac1 093e e073 523c
00000060: b0ff 6abe beb2 7b3e b8c6 79be 4b65 1ebe
00000070: 802d 723d 96d1 2d3e e481 d23d 5660 513e
00000080: d675 77be 9093 293e c379 93be b293 3e3e
00000090: 00c0 ecb7 6018 ebbd 4a91 333e be6d 6e3e
000000a0: 985d 1f3e e413 a6be adfd a23e 1862 6cbd
000000b0: 47ee a6be ca35 4d3e 6d20 a63e e0c1 153d
000000c0: 7db5 9d3e 002a c63b 0010 2c3d 1046 a4bc
000000d0: 02b2 a9be f516 a43e c023 4a3d 7dd3 a73e
000000e0: 04f2 953d e55c a23e bbce 12be 4cde 9cbd
000000f0: bca9 9fbe ea82 6f3e 9aad 303e 046b 903d
00000100: 60bf 1c3d 68ed 053d f02b fb3d 9085 4abe
00000110: 019c 873e 64d5 de3d 000f 10bc b699 ffbd
00000120: 6efe 383e 7b91 a1be 589e 053e c0e1 083d
00000130: 0e20 0ebe fc3c 963d 7bd5 45be b355 21be
00000140: 1b89 6bbe 9dfb 893e 4801 45bd c0e7 a7bb
00000150: 18d0 6abe 68c8 1dbd 0b39 90be f011 29be
00000160: d082 afbd c67f 29be 10ac d93c cbfd 4abe
00000170: c0d2 debc f932 963e eb29 5abe 0d19 953e
00000180: c0fe 8a3d 5668 dfbd b72a 8b3e 3890 3dbe
00000190: 4e2d 68be 43a4 6dbe a316 a2be 3235 173e
000001a0: c4f0 9dbd 64d0 9fbd 0028 b23b ec48 acbd
000001b0: 4eb8 5fbe 80c3 b73d 936a 6fbe 00f0 6dbc
000001c0: 00d1 a4ba 9428 a3bd 5df9 973e 30e3 ca3c
000001d0: b7f9 9dbe 82f7 523e 30ec bfbc 0ad5 6f3e
000001e0: 806d 703d 14f2 80bd eb0b 82be 8b21 90be
000001f0: 4056 40bd c703 a03e 1fb7 a73e f3c2 0fbe
00000200: fc28 a9be 188f 113d 405b 56bd 9663 15be
00000210: 2af6 2e3e c875 03bd 6fad 983e 82a9 593e
00000220: d04d a73d 607c 95be 7011 a73c c410 a0be
00000230: c804 6ebe cbbc 0bbe 0044 b3bb 4052 5abd
00000240: 831c 9abe c985 a93e a0a7 8bbe 162e 05be
00000250: 86a6 28be 37d5 863e 4fa0 923e 433d 82be
00000260: 3aa9 5e3e a000 ff3d b8f4 a3be d545 8a3e
00000270: 3ccd cfbd b8de 55be b826 3dbd 87c5 9dbe
00000280: b0ab 8abc acda d5bd 9fd1 833e c028 2c3d
00000290: e6c9 5f3e a802 0b3e f8d1 0ebd f6a1 2c3e
000002a0: 6d59 a53e f6f4 7ebe d6b6 50be 1b3f a9be
000002b0: a41a aabe 3bba 96be 3e2c 173e e854 153e
000002c0: 00d5 cfba e3a4 75be 5028 a33c c1c8 993e
000002d0: 19dd 903e 669e 98be bbf5 973e 98aa 103e
000002e0: 3639 3abe 6a26 3e3e cea5 1dbe 000c fbb9
000002f0: e164 813e 4cff fdbd 002a 22bb 4291 333e
00000300: c979 9b3e 4280 583e ae36 27be b2fc 403e
00000310: 2ea9 163e 3400 cb3d cf08 a5be 5404 81be
00000320: 8c63 94bd e4ac cd3d e20e 723e d6a8 2fbe
00000330: 3e5c 5f3e de2d 5a3e daaf 103e c557 853e
00000340: 703e 38be 0b44 89be 5c4e 85bd 0001 d8bd
00000350: 6570 963e a8a3 7dbd c071 17bd a084 b3bd
00000360: 027a 4e3e 588f 3f3d 40d4 4fbd 182e 7cbd
00000370: 607e 00bc 0000 9039 c3f9 a93e f81e 58bd
00000380: 71a1 9e3e bb12 8abe 83d0 a1be 4876 123d
00000390: e244 98be 8c03 d1bd 9c82 8a3d f00c d63d
000003a0: 3a42 043e da14 373e f6af 633e 9552 903e
000003b0: 5097 bb3c bee3 2abe 40b0 7b3d ec79 93be
000003c0: 083a 033d 43da a5be c1ff a43e 0072 aabc
000003d0: a32e 943e 9063 73be 8037 7bbc 63dc 843e
000003e0: f06b 9bbe b63a 85be 1a39 6e3e ae98 3f3e
000003f0: d36d 57be fdd9 9b3e 6c2c bfbd 00b2 83bc
-0.102090165 0.15117705 -0.21486092 0.07892051 0.1603013 -0.08686173 -0.29426098 -0.21895385
0.2537575 -0.21489152 0.1148437 -0.0993267 -0.24179463 0.13852894 -0.08439791 -0.105757594
0.21006683 -0.066408604 0.31407717 0.32809678 -0.048981816 0.16862455 0.13452664 0.01284501
-0.229491 0.24579903 -0.24392211 -0.15468328 0.059125423 0.16974482 0.10278681 0.20446905
-0.24166045 0.16560197 -0.28803834 0.18611029 -2.82228e-05 -0.114792585 0.17535892 0.23284051
0.15563047 -0.3243705 0.31834164 -0.057710737 -0.32603666 0.2004005 0.32446614 0.036561847
0.30802527 0.0060474873 0.042007446 -0.02005294 -0.33143622 0.32048765 0.0493505 0.3277854
0.073215514 0.31711498 -0.14336674 -0.07659587 -0.31184185 0.23389784 0.17253724 0.070516616
0.038268447 0.03269711 0.1226424 -0.19777513 0.2648621 0.10880545 -0.008792639 -0.1248049
0.18065807 -0.31556305 0.13048685 0.033418417 -0.13879415 0.073358506 -0.19319718 -0.15755348
-0.2300152 0.26949778 -0.048096925 -0.0051240623 -0.22930944 -0.0385212 -0.2816852 -0.16510749
-0.085698724 -0.16552648 0.026571304 -0.19823377 -0.027200103 0.29335764 -0.21305053 0.29120675
0.06786871 -0.109085724 0.27181026 -0.18512046 -0.22673532 -0.23207192 -0.31657895 0.14766386
-0.07711938 -0.07803419 0.0054368973 -0.08412346 -0.2184765 0.089728355 -0.23380499 -0.0145225525
-0.0012574494 -0.07966724 0.29682437 0.024766535 -0.3085458 0.20602229 -0.023428053 0.23421112
0.058698177 -0.06296173 -0.25399718 -0.2815059 -0.046957254 0.31252882 0.32756898 -0.14039211
-0.3303908 0.035536855 -0.052333117 -0.1458877 0.17086092 -0.032094747 0.2981982 0.21256068
0.081691384 -0.29196453 0.020394057 -0.3126279 -0.23244011 -0.13646238 -0.0054707527 -0.053301096
-0.30099878 0.33109882 -0.27276325 -0.13005862 -0.16469774 0.26334545 0.2863793 -0.25437364
0.21744242 0.12451291 -0.32022643 0.27006403 -0.10146567 -0.20885742 -0.046179503 -0.30814764
-0.01692757 -0.10442099 0.25745866 0.04203105 0.21854362 0.13575232 -0.03486821 0.16858658
0.3229479 -0.24898133 -0.20382246 -0.33055958 -0.3322345 -0.29438958 0.14762971 0.1458317
-0.0015856326 -0.2398868 0.019916683 0.30035976 0.28293684 -0.29808348 0.29679665 0.14127576
-0.18185887 0.18569341 -0.1539528 -0.0004788339 0.25272277 -0.1240221 -0.0024744272 0.1753588
0.30366352 0.21142676 -0.16329452 0.18846396 0.14712974 0.09912148 -0.32233283 -0.25198615
-0.072455496 0.10042742 0.2363849 -0.1715425 0.21812531 0.2130656 0.14129582 0.26043525
-0.17992568 -0.26809725 -0.065090865 -0.10547066 0.29382625 -0.061923653 -0.036973715 -0.087655306
0.2016373 0.046767563 -0.050739527 -0.061567396 -0.00784263 0.0002746582 0.33198366 -0.05276391
0.30982545 -0.26967415 -0.31604394 0.035757333 -0.29740053 -0.10205755 0.06763193 0.104516864
0.12915888 0.17879048 0.22235093 0.28188005 0.0228993 -0.16688439 0.061447382 -0.28803957
0.032037765 -0.32393083 0.32226375 -0.020806313 0.2894183 -0.23768449 -0.015333056 0.25949392
-0.30355787 -0.26021355 0.2326397 0.18710586 -0.21037988 0.3043975 -0.09334645 -0.016076088

feature_extractor.cnn.0.bias f4 [32]
00000000: eec4 1cbe b6e4 b9bd f237 2c3e 5a58 413e
00000010: 56ec 5e3e 4a7b 4c3e 2071 623d e5f1 863e
00000020: d8bb 79bd 404f 94be 5c8b ac3d 5500 a93e
00000030: 9b7e 89be 1bf8 08be 7c32 a23d e0c8 ccbd
00000040: 4cb6 c3bd 5ad7 7d3e d0ab a73d 0b9b 73be
00000050: c064 8c3b 0ab7 583e 235a a63e cc78 cbbd
00000060: 909d bdbc 00e1 e0bc 508a 90bc 00c0 023b
00000070: 668a 1b3e f813 35be 3081 db3c c05a 6ebe
-0.15309498 -0.09076826 0.16818216 0.1888136 0.21769843 0.19968906 0.055283666 0.26356426
-0.060970157 -0.28966713 0.08425018 0.33008066 -0.26854405 -0.13375895 0.079197854 -0.09999251
-0.09556255 0.24789181 0.081870675 -0.23789613 0.0042844713 0.21163574 0.32490644 -0.099351496
-0.02314642 -0.027451038 -0.017644078 0.0019950867 0.15189514 -0.17683399 0.026795 -0.23276806

feature_extractor.cnn.2.weight f4 [64, 32, 3, 3]
00000000: b1af 6d3d 765b 59bd 63ba 493d 1c57 313c
00000010: 04cb 58bd f094 7a3b 398e 5dbd 2db6 6fbd
00000020: 488e cb3b 00ce babc 221b a7bc 138b 613d
00000030: 0056 c238 7d3f 37bd c411 6dbc c4fb febc
00000040: 7fce 3fbd 5cd7 153c 95bf 073d e008 6dbc
00000050: a89b c43b 9b4b 153d 599a 533d 28a4 ab3b
00000060: 258e 4b3d e39e 513d b279 c03c ff26 6c3d
00000070: 5c46 cbbc 94eb 123c 40d7 40ba 0ed1 c73c
00000080: 0f77 12bd ecd1 2a3c 7043 a5bc ce83 973c
00000090: b571 4ebd b6b7 d93c c577 343d a61a 913c
000000a0: a404 77bc 9455 173c da83 bebc bb46 463d
000000b0: affa 043d 3ca5 6f3c 9ca1 00bd 99d3 6bbd
000000c0: a7a3 043d b855 f4bb 005a 0ebd 46ae 8dbc
000000d0: 509a 4a3b 7e15 9a3c 3c91 04bc ca47 09bd
000000e0: 6f06 113d 7b44 2fbd 565d adbc 20a4 d7bb
000000f0: 58e2 c8bc 6074 6cbc 82b1 f63c a712 0e3d
00000100: 2643 f83c c0c3 77bc 4487 86bc eb32 063d
00000110: 2b6e 213d db61 293d f567 6e3d 440d 143c
00000120: 4cbd 163c 8a54 993c b459 193c fc25 01bd
00000130: 2889 e2bc 6a56 9b3c ef96 60bd dec3 8a3c
00000140: 6165 403d 00a6 70bb 38fe bbbb b849 48bd
00000150: 9719 0c3d 62c6 e73c da8a a53c d64c f03c
00000160: 394c 663d 2d7e 0f3d 4c5e c2bc 3a55 c63c
00000170: da5f 6abd 7e71 10bd 200d 573b a0ca 71bc
00000180: 7059 24bb 175e 19bd a731 66bd c800 a63b
00000190: b0e2 60bc 11b4 fdbc 6e91 0ebd 62d4 f63c
000001a0: 5c28 4f3c 13ec 033d a6fa e73c fe78 883c
000001b0: 0635 4dbd df7c 5bbd 4537 2a3d c4fb a4bc
000001c0: ad18 553d 2f4f 58bd 0c39 90bc 2dec 4f3d
000001d0: 501e 56bb ab1c 47bd 8eb2 56bd b06b 59bd
000001e0: 4000 4aba 4392 5b3d 0934 413d a6fa 05bd
000001f0: 8250 a63c b0a1 15bc 08e1 02bd 2481 72bc
00000200: 0050 17bb 1637 efbc 0655 f8bc 7434 6a3c
00000210: 8e66 e53c 23ea 413d 51ae 6e3d c53c 593d
00000220: 5d65 283d 1085 02bc 1357 1e3d 579f e7bc
00000230: 7644 933c 72be cc3c 0d15 0a3d c8ff c13b
00000240: fe05 813c f109 043d 9008 f7bb 2331 463d
00000250: 1c36 12bc 432b 6b3d a073 d9bb 7a2f cabc
00000260: 4001 b9ba e01b cdbc 58cb bdbc e07f 0abb
00000270: b569 0a3d 9c88 423c 567b b33c 486c a73b
00000280: 8464 203c 33fb 103d 9a31 04bd f538 433d
00000290: 33b3 213d dee4 6abd 97ff 523d 9813 afbc
000002a0: 489a acbc 2aa6 20bd a08c 14bd 4058 ff3a
000002b0: 5412 083c 0de8 073d 58a6 ea3b d15c 003d
000002c0: 02a5 fd3c 20bc 443b 07f8 2c3d 79b2 5a3d
000002d0: c079 71ba ebe5 4f3d cc8e 3cbc 509b dcbb
000002e0: 3469 4e3c fe49 3ebd 79d3 2f3d 4777 233d
000002f0: a245 cabc 3758 163d c32a 60bd 846d 723c
00000300: 82c4 d33c c724 633d ba4d 85bc 703b debc
00000310: 7eb9 ec3c d988 6d3d 26ab 20bd d430 4c3c
00000320: a87e 90bb 5eb6 c1bc bc37 d5bc 2486 6ebc
00000330: d049 47bd 229c c53c 70a4 0dbb 2560 133d
00000340: 1cb9 703c ca66 10bd 91bd 703d 16ac d5bc
00000350: a0f4 16bc 51e1 46bd 4931 0f3d 60bf 93bb
00000360: 4e18 9fbc d05c 8cbc 8215 a83c 5fc8 163d
00000370: bc6c 5fbd 6d33 073d 1c2d b0bc 9a0a 953c
00000380: 1620 5bbd 39d1 573d 40ff 9dba be23 803c
00000390: 22e9 e9bc b407 53bd 34a2 05bd acbd 5cbc
000003a0: 0a7c 4abd 40a8 9c3a 2551 3c3d feb7 36bd
000003b0: 173e 273d c8dd 4abc d1d1 1c3d e50b 23bd
000003c0: 8fa4 543d 5214 37bd 4423 16bc 39f7 0e3d
000003d0: 78dc 35bd 7a70 8b3c 2ca8 38bd 807c ccbc
000003e0: 1013 77bc 50cf 0abb bf46 143d 455a 233d
000003f0: b503 0e3d 30b4 13bd 5096 05bc 4398 313d
0.05802888 -0.05306574 0.049250018 0.010823991 -0.052927986 0.0038235746 -0.054090712 -0.058523346
0.0062120296 -0.022803307 -0.02039868 0.055064272 9.2666596e-05 -0.04473828 -0.014469568 -0.03112591
-0.04682779 0.009145584 0.03314169 -0.014467448 0.006000001 0.036449056 0.05166087 0.005238075
0.049696106 0.051176917 0.023495529 0.057654377 -0.024813823 0.008967299 -0.00073562935 0.024391677
-0.035758074 0.010426026 -0.020173758 0.018495467 -0.05040141 0.026576858 0.044059534 0.017712902
-0.01507679 0.009236712 -0.023256231 0.048407298 0.032465633 0.014626797 -0.031404123 -0.057574842
0.032382634 -0.0074565075 -0.0347538 -0.017295014 0.0030914731 0.018809076 -0.008091267 -0.03351573
0.035406526 -0.042789917 -0.02116267 -0.0065808445 -0.024521992 -0.014432043 0.03011394 0.034685757
0.030305456 -0.015122354 -0.016421922 0.032763403 0.039411705 0.041353088 0.05820461 0.009036366
0.009200405 0.01871707 0.009359766 -0.031530365 -0.027653292 0.018962104 -0.05483144 0.0169391
0.046971682 -0.0036720037 -0.0057370923 -0.04889843 0.034204092 0.028292838 0.020207811 0.029333513
0.056225035 0.03503244 -0.023726605 0.024210561 -0.057220317 -0.035264485 0.003281422 -0.014757782
-0.0025077723 -0.037443247 -0.056199696 0.005066011 -0.0137259215 -0.030969651 -0.03480666 0.030130569
0.0126439 0.03220756 0.02831776 0.016659256 -0.050099395 -0.053585883 0.041556615 -0.020139582
0.052025486 -0.05280989 -0.017605327 0.050762344 -0.0032671876 -0.048611324 -0.052416377 -0.053081214
-0.0007705726 0.053606283 0.047168765 -0.03270974 0.020302061 -0.009132788 -0.031952888 -0.014801297
-0.0023088455 -0.029201072 -0.03031398 0.014294732 0.028003003 0.04734243 0.05827171 0.05303647
0.041112293 -0.007966295 0.03865726 -0.028274221 0.01797698 0.024993155 0.03371148 0.005920384
0.015749928 0.032236043 -0.0075388625 0.048386704 -0.0089240335 0.057414304 -0.006636098 -0.024680842
-0.0014114752 -0.025037706 -0.02316825 -0.0021133348 0.033792216 0.0118733905 0.021909397 0.0051093437
0.00978959 0.035395812 -0.032273866 0.04766174 0.03947754 -0.05734717 0.05151328 -0.021371648
-0.02106966 -0.039220966 -0.036266923 0.0019481257 0.008305151 0.033180285 0.007160943 0.031338517
0.03096247 0.0030019358 0.042228725 0.05339286 -0.00092115626 0.050756376 -0.011508655 -0.006732382
0.012598325 -0.046457283 0.042926285 0.039908674 -0.024691407 0.036705222 -0.05472828 0.014796618
0.025850538 0.055454995 -0.016272414 -0.027127951 0.028897043 0.057991836 -0.03922572 0.012462813
-0.00440963 -0.02364653 -0.026027553 -0.014558349 -0.048654377 0.024122301 -0.0021612905 0.035980362
0.014692571 -0.035254277 0.058774535 -0.026083034 -0.009213597 -0.048554722 0.03495911 -0.0045088977
-0.019420769 -0.0171341 0.020518068 0.036812183 -0.054547057 0.033008028 -0.021505885 0.018193532
-0.053497396 0.052689765 -0.001205422 0.015642043 -0.02855355 -0.05152102 -0.032625392 -0.013472956
-0.0494347 0.0011951998 0.045975823 -0.044609062 0.040830698 -0.012381978 0.038286034 -0.039806265
0.051914748 -0.044697113 -0.009163681 0.03490374 -0.04439971 0.017021406 -0.045082256 -0.02496171
-0.015080228 -0.0021180697 0.03620028 0.03988101 0.034671504 -0.036060512 -0.008153513 0.0433581

feature_extractor.cnn.2.bias f4 [64]
00000000: 7f8e 043d 1ca0 19bd 7f86 1fbd 6edf 65bd
00000010: 8e1d 37bd d0f0 ecbc c744 703d a0fe 8abb
00000020: b392 4c3d 7738 0f3d 52f0 5bbd 6e83 47bd
00000030: ef21 0d3d 2b29 553d 0093 61b9 0ccc 0c3c
00000040: 97b6 093d 94c2 5fbc b859 1ebd 2046 05bb
00000050: 1698 bdbc e4cd 213c 88f0 8bbc c0a2 133b
00000060: 6839 a93b e896 bcbb d8a9 a9bc 9ec8 0abd
00000070: f131 3dbd 89fe 533d 5c5f 21bd 3234 c43c
00000080: ec3c 19bd 000c 7cbc bcb4 683c d0bf 3bbb
00000090: 7c08 16bc 73d8 053d 0495 acbc f8e5 ac3b
000000a0: c382 003d 38ce 4abc a2b1 bdbc 6592 f1bc
000000b0: ef63 623d b415 59bd 1866 2fbd 51a6 023d
000000c0: c613 6bbd b0b7 67bb e059 66bb 3b47 6b3d
000000d0: af85 3abd ad97 3c3d 52ad 2abd 9b3e ebbc
000000e0: 254f 513d 78cd 66bd 77bc 3bbd a394 52bd
000000f0: 8683 ae3c 10dd a2bc 4cc7 6a3c c466 0dbc
0.032362457 -0.037506208 -0.038946625 -0.056121282 -0.04470592 -0.028923422 0.05865934 -0.0042417794
0.04994459 0.03496596 -0.053695984 -0.048709325 0.03445619 0.052041214 -0.00021512434 0.00859357
0.033621397 -0.013657231 -0.03865978 -0.0020335987 -0.02314381 0.009875748 -0.017082468 0.0022527426
0.005164314 -0.005755294 -0.02071087 -0.03388273 -0.046190206 0.051756416 -0.039397582 0.02395067
-0.037411615 -0.01538372 0.014203247 -0.0028648265 -0.009157296 0.032677125 -0.02106715 0.005276438
0.031374704 -0.012378268 -0.023155991 -0.029488752 0.055271085 -0.052999213 -0.042821974 0.031896893
-0.057391904 -0.003535729 -0.0035148785 0.057440978 -0.045537647 0.046043087 -0.041669197 -0.028716376
0.05110087 -0.056348294 -0.04583403 -0.051411282 0.02130295 -0.019880801 0.014329743 -0.008630458

feature_extractor.cnn.4.weight f4 [64, 64, 3, 3]
00000000: 12a9 f23c b4a1 613c 3c9c 1d3c 89af 143d
00000010: 60c1 fc3a 16f5 1dbd c1b4 113d 50a4 673c
00000020: b871 f63b 5c10 56bc d018 823c 7ad1 da3c
00000030: e6d8 9b3c 8a82 bd3c 5a06 b73c fa2e 9d3c
00000040: a548 0b3d 583b b33b 54aa 1bbc 6553 023d
00000050: 8ea4 f8bc 4261 1fbd 06be a53c e2c6 a23c
00000060: 9830 03bd 3067 903c 17ec 293d 6ab7 f03c
00000070: 866f 6fbc 5008 48bb a2b7 ca3c 7ccc 03bc
00000080: b0f2 2ebc 5c7a 1bbc 8b65 29bd b62b f93c
00000090: 90ff 8a3c 647c 643c 283a fe3b c0e4 7cbb
000000a0: 92e5 cb3c 2033 de3a aed2 18bd 4073 2fba
000000b0: 110d 0a3d b84b e13b 6662 d1bc b82a aabc
000000c0: 9abb e93c 50bc 5d3c 8833 dcbb fbd7 233d
000000d0: f84c febb 86a6 b8bc dbfa c6bc a80e b0bb
000000e0: 0ab7 b43c e683 72bc 28d1 ff3b 276f 1c3d
000000f0: 592a 133d 68e7 d0bb ce9b cd3c 9b01 abbc
00000100: 8afe d23c 90c3 113b 40da c7bc 720a d93c
00000110: a899 ddbc 2fd9 1c3d de5c 12bd c82d 8e3c
00000120: d04b 40bc a192 023d 4024 1d3b 568d 09bd
00000130: d888 dd3b 561f f33c f605 94bc 908f 7abb
00000140: b301 f5bc 1e08 b73c 8225 d73c 968c 15bd
00000150: 3d2e 213d a0ce 883b f8f0 debb b083 03bd
00000160: d0e6 633c a0d8 a33a 06b0 ca3c c009 3cbb
00000170: e698 8f3c 3274 e03c 069e 3abc 08e9 1bbd
00000180: 5b3b e6bc e8d5 26bd c018 96bb a8bf c4bc
00000190: 166e b83c 88c8 85bc 0390 eabc 7c21 40bc
000001a0: ec25 1cbd f121 003d 30de b8bc 3ee1 e0bc
000001b0: 908f 6b3c 7cc8 693c b997 1d3d cea8 95bc
000001c0: d08e 0ebb ac03 3f3c f54f 083d ab3e eabc
000001d0: 8a65 9d3c a0ea ed3a 480e d3bc 1092 0dbd
000001e0: cbce ddbc b0d0 7b3b fcd1 473c be7e ed3c
000001f0: 43ef 9ebc 98bf b63b 8dde 273d 66fe f1bc
00000200: 8ac1 da3c 8ae8 843c d041 1cbd 4099 86bc
00000210: 701a dabc 18fb bc3b 007d 27ba bcbd 7ebc
00000220: b2e9 d53c 43da 93bc fdd9 143d 5cfa 293c
00000230: cc23 4a3c 429a f33c 8c87 47bc beb8 cbbc
00000240: 75f8 253d 380c f2bb 9b01 1bbd fe99 86bc
00000250: 9c68 16bc b28d 823c d82b 933b 306f 573c
00000260: 1036 a83c 2064 26bd 0031 6fba 8017 28bd
00000270: 0098 92b9 c433 7d3c c2f8 d13c c0cd 24ba
00000280: 1b8a dbbc 18fe a43b 1834 96bb 15c3 263d
00000290: 0820 ccbc e478 463c 3a4b df3c b0a0 6a3b
000002a0: 1094 773c 5615 04bd b039 853c be12 ec3c
000002b0: f453 5a3c 7f99 183d 5012 113c 98bf 9c3b
000002c0: 1482 403c fb73 1f3d 70b5 07bb 2841 f7bc
000002d0: d83b 8c3c d0a2 05bb e21d 953c 73b8 1d3d
000002e0: a07d f7bb 4c5e 433c c0e2 303c 4075 f93b
000002f0: 32ba c03c a0c5 f7bc 9619 c23c dcd8 27bd
00000300: c0cb 513a 488d adbb ff85 213d 6c6b 2d3c
00000310: 3073 9dbc 28be f13b 08ab b8bb f0c0 18bd
00000320: 8098 dcba 7e2f aebc c892 e7bb 204a 88bb
00000330: a2c7 c13c 6824 ce3b 58fb d2bb 2039 563c
00000340: 0499 133c 9408 543c e3e1 d7bc c6e1 17bd
00000350: 78cf b83b 4377 bcbc 7b18 e6bc cb08 c5bc
00000360: 96b6 993c 218e 0a3d e88f 02bd 16d3 973c
00000370: fb51 86bc cc1e 2a3c f6e8 f7bc 3087 4dbb
00000380: f0d2 293c a8ae c33b 7caf 7d3c 0079 adba
00000390: 50eb 9ebc 6aa1 d73c ba06 c43c 5057 07bb
000003a0: 9191 003d d095 523b ee19 b0bc a922 0d3d
000003b0: 2e5f f73c d802 aabb a074 c7bc 60f7 ecbb
000003c0: 9266 02bd a814 d7bb cc03 59bc f020 d6bc
000003d0: e6f1 b3bc 5a1a b13c 30b2 3bbb 6821 943b
000003e0: 08a8 a93c 83ea debc a027 8e3c 4e4c 11bd
000003f0: a31a 03bd 7e10 e0bc bcc2 72bc 28fa 02bd
0.029621635 0.013771463 0.009619769 0.036300216 0.0019283704 -0.03856381 0.03557277 0.014138296
0.0075208806 -0.013065424 0.015880972 0.026711214 0.019024324 0.023133535 0.022341896 0.01918744
0.034004826 0.005469721 -0.009501059 0.031817812 -0.030351903 -0.03891111 0.020232212 0.019870225
-0.032028764 0.017627329 0.04148492 0.029384334 -0.014613992 -0.0030522533 0.024745766 -0.008044358
-0.010677978 -0.009489622 -0.041356605 0.03041635 0.016967565 0.013945673 0.0077583976 -0.0038588494
0.024889741 0.0016952492 -0.037310295 -0.0006692894 0.033703867 0.0068754815 -0.025559615 -0.020772323
0.028531838 0.013533667 -0.00672001 0.040000897 -0.0077606402 -0.022540342 -0.02428954 -0.005372841
0.022059936 -0.014801955 0.007806916 0.03819194 0.035929058 -0.006375242 0.025098708 -0.020874789
0.02575614 0.0022241808 -0.024396062 0.026494239 -0.027050808 0.03829306 -0.035733096 0.017355815
-0.011736825 0.031878117 0.0023977906 -0.033582054 0.006760698 0.029678028 -0.018069249 -0.0038232543
-0.029908037 0.022342738 0.026263002 -0.036511026 0.039350737 0.0041750222 -0.006803628 -0.03210801
0.01391001 0.0012500472 0.024742138 -0.0028692335 0.017528962 0.027399156 -0.011390215 -0.038064033
-0.028104475 -0.04073134 -0.004580587 -0.02401717 0.02251343 -0.016330972 -0.028633123 -0.011726733
-0.038122103 0.03128237 -0.022566885 -0.027451154 0.01437749 0.014268991 0.038474772 -0.018268969
-0.0021752603 0.01165859 0.033279378 -0.028594336 0.019213457 0.0018151589 -0.025763646 -0.034563124
-0.027076146 0.0038423948 0.01219606 0.0289911 -0.019401198 0.005577039 0.040983725 -0.029540252
0.026703615 0.016224165 -0.0381487 -0.016430497 -0.026623935 0.0057672374 -0.0006389171 -0.015548166
0.026112411 -0.018048411 0.036340702 0.010374632 0.012337636 0.029736642 -0.012178313 -0.024868365
0.04052015 -0.0073867105 -0.037843328 -0.016430851 -0.009180214 0.015936706 0.0044913106 0.013149068
0.020533592 -0.04062283 -0.0009124428 -0.041038036 -0.0002796054 0.015454236 0.025631312 -0.00062867627
-0.026799252 0.005035173 -0.004583847 0.04071339 -0.024917617 0.0121137835 0.02725755 0.0035801344
0.015110984 -0.03224691 0.01626286 0.02881753 0.01332568 0.03725576 0.008854464 0.004783582
0.011749763 0.038928967 -0.002070751 -0.030182436 0.01711838 -0.0020391233 0.018202726 0.038505983
-0.0075528175 0.011924338 0.010796249 0.0076128542 0.023526285 -0.030245602 0.023693841 -0.040978298
0.00080030784 -0.005296383 0.03943443 0.010584693 -0.019219965 0.0073774047 -0.005635623 -0.037293375
-0.0016830117 -0.02126288 -0.0070670582 -0.004159227 0.023654763 0.006290961 -0.006438654 0.013075143
0.00900865 0.012941498 -0.026352828 -0.03708055 0.0056399666 -0.023006087 -0.028087845 -0.024052044
0.018763822 0.03382695 -0.03187552 0.01853327 -0.016396513 0.010383319 -0.030262452 -0.0031361096
0.010365233 0.0059717484 0.015483733 -0.0013234913 -0.019399315 0.026322085 0.023928989 -0.0020651408
0.031388823 0.0032132752 -0.02149674 0.034456883 0.030196752 -0.0051883273 -0.024347603 -0.007231638
-0.0318361 -0.0065637417 -0.013245534 -0.026138753 -0.021965932 0.02161901 -0.0028640144 0.004520584
0.020710006 -0.027211433 0.017352879 -0.03547316 -0.032007825 -0.027351614 -0.014816936 -0.03197685

feature_extractor.cnn.4.bias f4 [64]
00000000: 0432 163c ec52 543c 5bb6 a9bc ecd7 01bc
00000010: 5228 db3c ade2 183d d035 31bc 23f4 113d
00000020: 20c8 86bc 40fa 2cbc ba42 853c f1fa 053d
00000030: c611 59bc 78a8 f8bc eb36 18bd d9e2 0a3d
00000040: 9cbc 14bd c9a1 163d 5018 69bb 58ef 98bb
00000050: 187f 9fbc dc0b 40bc 1bd2 84bc d01c 85bc
00000060: 1e52 fbbc cf38 293d b0a2 cfbc ec38 153c
00000070: 70de 0dbb 9656 65bc 1a3c 07bd 545b 27bd
00000080: f80f 07bd e22d 8c3c 826c b73c 4a3e 20bd
00000090: 9187 283d d3fa ccbc f4fe 18bc 40a6 723a
000000a0: b7a9 16bd 61f6 133d 98fe febc e935 003d
000000b0: 083d b23b b3de a4bc c08d e33b 6034 b7bb
000000c0: 2b00 113d 9cf2 00bd 587c fbbc 78c2 a1bc
000000d0: 6fa3 203d 1600 5fbc 161b bf3c 80f2 51bc
000000e0: acf0 06bd 0603 04bd 2876 d9bb 4ca5 51bc
000000f0: 72da df3c 5399 afbc 65aa 293d 2649 d6bc
0.009167198 0.012959223 -0.020716837 -0.007925015 0.026752625 0.03732555 -0.010816053 0.035633218
-0.016452849 -0.010557711 0.01626717 0.03271002 -0.013248866 -0.03035377 -0.03716175 0.033907745
-0.036312684 0.036775384 -0.003556747 -0.004667204 -0.019469783 -0.0117215775 -0.016213467 -0.01624909
-0.030678805 0.041313943 -0.02534613 0.0091078095 -0.0021647476 -0.0139976945 -0.0330163 -0.04085858
-0.032974213 0.017111722 0.022390608 -0.039121903 0.04114491 -0.025021946 -0.009338129 0.00092563406
-0.036782946 0.036123637 -0.03112726 0.031301413 0.0054394044 -0.020125723 0.006944388 -0.0055909604
0.03540055 -0.03148137 -0.03069894 -0.01974605 0.039218362 -0.01361086 0.023328345 -0.012814164
-0.032944366 -0.032229446 -0.0066364 -0.0127957575 0.027325843 -0.021435415 0.041422267 -0.026157927

feature_extractor.arm_state_fc.0.weight f4 [64, 2]
00000000: a22c f2be 270d 31bf b26a ad3e 1090 58be
00000010: af76 053f c0a3 993c 3651 9fbe c6b0 d53e
00000020: b1ba 073f 0006 fbbb 28a5 aebe fdf1 1c3f
00000030: 0016 e73d 30d8 e83d 46ec af3e 60cb 81bd
00000040: d58d 303f cd6c 013f 4038 d2bc ecf7 b6be
00000050: 9201 ea3e 8ade d03e 0070 a9bc cef9 79be
00000060: a8b7 abbe ecc1 08bf a3b8 34bf bad9 8a3e
00000070: ef38 223f 4ab5 933e 1143 a6be 614a f6be
00000080: 5d68 1d3f 78df 02be 6a3b bb3e d25c e83e
00000090: 0e52 ed3e 2e84 c7be 4e30 fc3e 8d1b 083f
000000a0: 14ce 04bf 036b 203f 6a9a eb3e b053 763e
000000b0: e9df b7be d9e8 053f 709d 26be 1ef0 f23e
000000c0: f247 9e3e 1493 5bbe 7ae9 b5be 28c8 5fbe
000000d0: b00c 2cbd 99bc 0d3f e5ee 07bf b013 743e
000000e0: 6e70 eebe b1ea 073f 76cf 863e f29e fabe
000000f0: 408a 3abd 2241 9a3e 868b ec3e f897 af3d
00000100: 6a13 983e 82df 853e e073 083d df38 90be
00000110: ed3d a4be db48 f6be a006 e53c 6013 f1be
00000120: d83e ea3d e043 733d 1a00 08bf 40cb 82bc
00000130: d5dd 2e3f 84f5 25bf 00f2 dcbe a1d5 1cbf
00000140: 698d 323f 92b4 d33e 6bf0 a8be 6dbf 9abe
00000150: 553c 0fbf fb35 d3be 7c36 16be 1230 983e
00000160: 6a6e fa3e 6ce2 f5be 31e5 063f 486a c43d
00000170: 46b7 de3e 2072 91bc 14e9 63be 9520 103f
00000180: ac6b 82be b8e3 673e 8ab5 863e 06b5 c3be
00000190: 7579 a4be 8069 e53d 0736 13bf 0007 78bb
000001a0: 5e1b 32bf 94bf 21be ee56 ecbe 1fd2 10bf
000001b0: b93d 023f 9db5 233f 5c54 7a3e 6cdf 1bbf
000001c0: 80f1 ccbc dbef 93be fef1 d43e 4d23 33bf
000001d0: 30a7 393e ed6a 053f b84d f03d 20f2 ed3d
000001e0: 00bc f7be 4056 80bd 4247 54be c0fe 64be
000001f0: b073 233d 9554 0fbf e0e5 e13c 0030 77bc
-0.47299677 -0.69160694 0.33870465 -0.21148705 0.5213422 0.01875484 -0.31116647 0.4173643
0.53019243 -0.0076606274 -0.3411038 0.61306745 0.11283493 0.113693595 0.3435995 -0.06337619
0.6896642 0.5055664 -0.025661588 -0.35736024 0.45704323 0.40794784 -0.020683289 -0.24411699
-0.33538556 -0.534209 -0.70594233 0.27119237 0.63368124 0.2884925 -0.32473043 -0.48103622
0.6148737 -0.12780559 0.36568767 0.45383316 0.46351665 -0.38968033 0.49255604 0.5316704
-0.5187695 0.62663287 0.46016246 0.24055362 -0.35913017 0.5230842 -0.16270995 0.4744882
0.30914265 -0.21442825 -0.3552969 -0.21853697 -0.042004287 0.553659 -0.530989 0.23835635
-0.46570152 0.53092486 0.26330155 -0.4894939 -0.045542 0.30127817 0.46200198 0.085739076
0.29702312 0.26147085 0.033313632 -0.2816839 -0.32078496 -0.4810246 0.02795726 -0.47085094
0.11437768 0.059390903 -0.53125155 -0.015966058 0.6830724 -0.6482775 -0.4315338 -0.6126347
0.69747025 0.41348702 -0.32995924 -0.3022417 -0.55951434 -0.4125212 -0.14669222 0.29724175
0.48912364 -0.4802431 0.5269347 0.09590584 0.43499202 -0.017754614 -0.22256881 0.56299716
-0.25472772 0.22645462 0.26310378 -0.38224047 -0.32123914 0.11201763 -0.57504314 -0.003784597
-0.6957301 -0.15795738 -0.46160072 -0.5657062 0.5087543 0.63948995 0.24446243 -0.6088779
-0.0250175 -0.28893933 0.41590875 -0.6997574 0.18130183 0.5211628 0.11733574 0.11618447
-0.4838562 -0.06266451 -0.20730308 -0.22362804 0.03990525 -0.55988437 0.027575433 -0.015087128

feature_extractor.arm_state_fc.0.bias f4 [64]
00000000: 2d08 043f 4ac7 81be ecec f7be cb36 9bbe
00000010: 2044 b1be ac32 67be b2b5 fc3e 16a5 c8be
00000020: c2c8 e83e 5855 113e c092 f43c c16a a8be
00000030: c89d 73be 76e3 c73e 8033 803b 497b 1ebf
00000040: fb75 97be ed2a 143f 2ccd 09bf 70f3 2fbe
00000050: 984f ecbe 18bb 433e 4f85 a5be 095f 17bf
00000060: 7aff da3e 305c 79be ce2d f83e c3d7 b8be
00000070: 5a47 fcbe 1510 2d3f 04c5 353e 774d 32bf
00000080: 9831 d23d 1c74 893e 807c 9cbb 3cb5 1cbf
00000090: f89d 10bf 6232 f93e 8037 a0bc 6302 2abf
000000a0: 14a7 25bf 3a61 68be 8885 ff3d c9cc cabe
000000b0: 45d7 163f 2ef4 ff3e 48c2 20be 74af 8a3e
000000c0: ba9e 13bf b885 e1bd afc7 263f 86d9 a13e
000000d0: 90a4 11bf 00bd 40be 68b6 dcbe c1ee 29bf
000000e0: 7474 67be 540a 89be 96fa c23e 3666 e83e
000000f0: 1e96 ad3e 6f87 10bf a0a7 583e b93b 32bf
0.51574975 -0.25347358 -0.48422945 -0.3031524 -0.34622288 -0.22577924 0.49357373 -0.3918845
0.45465666 0.14192712 0.029855132 -0.32893947 -0.23790658 0.39040726 0.0039123893 -0.6190687
-0.295822 0.57878 -0.5382869 -0.17182708 -0.46154475 0.1911434 -0.3232827 -0.5912939
0.42773038 -0.24351573 0.48472446 -0.36102113 -0.49273187 0.67602664 0.17750937 -0.6964945
0.102633655 0.26846397 -0.0047755837 -0.6121404 -0.5649104 0.48671252 -0.019557714 -0.6640989
-0.64708066 -0.22693339 0.12476641 -0.39609364 0.58922225 0.49990982 -0.15699112 0.27086985
-0.5766407 -0.11011833 0.65148443 0.3161127 -0.5689173 -0.18822098 -0.43107915 -0.66379935
-0.22603017 -0.26765692 0.38081807 0.4539048 0.33903593 -0.56456655 0.21157694 -0.6962238

feature_extractor.arm_state_fc.2.weight f4 [64, 64]
00000000: 607f 4e3c 3c76 003d 2289 c3bd a4d9 2ebd
00000010: 46ee 83bd 5c95 86bd 0a90 a23d e631 ddbd
00000020: e0e4 9dbd 64b2 943d 2069 813c 689f a73d
00000030: 4827 35bd 4042 4c3c a0a7 8cbb 3827 01bd
00000040: bc9c cebd ac10 ebbd 1abc 9c3d ec72 ca3d
00000050: a8fd 3bbd 105c 49bc d05f b7bd 4408 92bd
00000060: 46f8 ee3d 08c3 5d3d 20c9 b2bb f665 ce3d
00000070: c635 f23d 3841 643d 7009 c73c 4478 a33d
00000080: 30bf 08bd 6c01 753d e64e f83d c038 143c
00000090: da3d dbbd 487e 9e3d 5a04 88bd 204f d0bd
000000a0: 4c1b 66bd f4ff d63d d8a9 313d 187d a93d
000000b0: 9e33 cb3d d03b 393d 74d2 47bd 6017 e3bc
000000c0: c02c a5bd a482 a9bd 7845 e63d bc72 55bd
000000d0: f234 9f3d 26d3 a53d 84f4 e23d 409f a13d
000000e0: 0440 dcbd 80e1 723b 589a dfbc b47e 893d
000000f0: 6eb8 dfbd 160b c2bd f280 c83d dc14 0e3d
00000100: 6c1b 2b3d 40c9 8a3b 38df 3d3d 30b9 65bc
00000110: 90e1 e9bc e47b 8ebd 58d6 93bd 7ccf 41bd
00000120: eca2 f9bd 2c07 e4bd f05d 75bd 748f 85bd
00000130: 2026 48bc 8aed babd 68a9 89bc 14f2 33bd
00000140: 7a69 853d 4c23 7c3d b8d5 8f3d f889 943d
00000150: d04f ed3d 946d 5e3d e8c3 e1bc c07e 5f3c
00000160: 408e 45bc f8d3 473d 224f a03d a439 c3bd
00000170: 208f b6bd 2a43 c8bd b8a3 cf3c c4e8 2d3d
00000180: b8db cbbd 3a6b 913d e6c4 c53d d4f2 bd3d
00000190: 6001 9cbd a496 5c3d b8d2 90bc f836 c0bd
000001a0: 6807 b33d 98e5 023d dc1c 063d 2cc1 643d
000001b0: a268 b43d e052 e4bc 4c4f 053d e039 8c3b
000001c0: d06b 59bd 9e56 d7bd 642a 1cbd 1cfe 9fbd
000001d0: 20ee 3abd 92da e53d 0420 53bd ba60 f5bd
000001e0: 849f 62bd 980c 3dbd 6259 a63d c80f b33c
000001f0: 6426 543d f0e2 16bc 6084 df3c 007a 523c
00000200: 8ad9 e5bd 2058 513c a404 f1bd a001 2abc
00000210: a05d 0b3c 5086 65bc 7ce3 ef3d c0e3 d1bd
00000220: 1888 683d c0df ed3c 8c89 3fbd 5eb8 f9bd
00000230: c0bf ad3d ae5f b73d fcee 59bd beec e4bd
00000240: 78e4 583d 743b b1bd 206c c93c f262 b5bd
00000250: 901e 4c3c 70d0 69bc e03e efbc 4cfb b5bd
00000260: f0e6 c9bd a48d e43d be77 8d3d 5078 fb3d
00000270: 2455 e73d 46c0 883d 34c6 3f3d 9c91 0abd
00000280: 388c a33c a88a cebd 4621 cfbd 00e4 7939
00000290: a4a3 21bd 8c7a 943d ec0d 00bd 203c 95bc
000002a0: 7098 9d3d a0d0 bd3b 4af0 c23d 6c38 f6bd
000002b0: 9ae3 d73d c42e 9bbd 1494 d33d 4863 d53d
000002c0: eabc a53d 20b0 443d 4096 d3bb ecc6 e4bd
000002d0: 206c a2bd 1a16 cfbd e009 493c 50f5 94bd
000002e0: e0be 9a3b 40a5 4c3d 200b d9bd 7cb8 5b3d
000002f0: c81b bb3c a46c 673d e475 44bd e8b5 c43c
00000300: 1000 f7bd 8067 5d3b 804f 043b a4a7 ecbd
00000310: c279 b03d 241a 433d 001b a3bb d0ca f5bd
00000320: 9cb7 64bd 10f4 7bbc c0d5 fb3c 0813 033d
00000330: 2ce0 b2bd 84a2 133d 56bc 8bbd 047b 523d
00000340: e09b aebc 0004 133b c80e 2fbd 260f aabd
00000350: 5c81 dfbd b8ca 653d 502b 453d a4ba 3c3d
00000360: a0bf 8d3d 0826 d83d 580f bc3c 040e 643d
00000370: be12 ffbd bc7c a4bd 78af 133d 4c2a ce3d
00000380: e40d be3d a6cb f13d 448c b4bd 181f 893d
00000390: c0ff bd3c 00cd 413a 802e 6fbb 0c91 1a3d
000003a0: 60d6 dcbd 68a5 dcbc 9231 df3d e4e4 50bd
000003b0: 44a0 e83d 00fd 5cba 00e8 c83c 9ec5 bebd
000003c0: 8231 d1bd 70b6 27bc 1041 4f3d d4c5 f23d
000003d0: b8ce be3c e8e2 71bd 00a4 fb39 b86f 66bd
000003e0: 520e fa3d 50e8 f8bc ac72 52bd 4095 a63b
000003f0: 3004 27bd 90a3 593c 882c c4bc 182a 653d
0.012603611 0.031362757 -0.095476404 -0.042688027 -0.064419314 -0.06571457 0.079376295 -0.10800533
-0.0770967 0.07260588 0.015797198 0.08184701 -0.044226915 0.012466967 -0.0042924434 -0.031531543
-0.100884885 -0.11477789 0.07653065 0.09885201 -0.045896202 -0.012290016 -0.08953822 -0.07130483
0.11668448 0.054141074 -0.005456105 0.10078041 0.11826663 0.05572626 0.024296492 0.07981923
-0.033385456 0.05981581 0.12124424 0.009046733 -0.107051566 0.0773893 -0.06641455 -0.10171342
-0.056178376 0.10498038 0.043374866 0.08275813 0.099219546 0.045223057 -0.048784688 -0.027721107
-0.08065176 -0.08276871 0.11243719 -0.052111372 0.077737704 0.08096914 0.11081794 0.07891703
-0.107543975 0.0037060678 -0.027295277 0.0671362 -0.10923849 -0.09474771 0.09790219 0.03468786
0.0417742 0.0042354167 0.046355456 -0.014021203 -0.02854994 -0.06957224 -0.07218617 -0.047317013
-0.12189278 -0.111341804 -0.05990404 -0.06521502 -0.012216121 -0.09127338 -0.016804412 -0.043932036
0.06514259 0.0615571 0.070231855 0.07252878 0.11587489 0.05430372 -0.027559236 0.013641059
-0.012057841 0.048786134 0.078275934 -0.095324785 -0.08914018 -0.097784355 0.025346622 0.04245831
-0.099540174 0.0710053 0.09656696 0.092748314 -0.0761745 0.0538546 -0.017678604 -0.093854845
0.08741647 0.03195724 0.032742366 0.055848286 0.088090196 -0.02787155 0.032546327 0.00427936
-0.053081334 -0.10514568 -0.038126364 -0.078121394 -0.04563725 0.112233296 -0.051544204 -0.1198134
-0.055327907 -0.04615459 0.08122517 0.021858111 0.051794425 -0.00920938 0.027284801 0.01284647
-0.11223133 0.012777358 -0.11768463 -0.010376364 0.008506209 -0.014009073 0.11713311 -0.10248518
0.056770414 0.029037356 -0.046762034 -0.121933684 0.08483839 0.08953796 -0.05320643 -0.111779675
0.05295226 -0.08653918 0.02458769 -0.08856763 0.012458459 -0.014270887 -0.029204786 -0.08885822
-0.09858501 0.11159828 0.06907605 0.12278807 0.11295536 0.06677298 0.04681988 -0.03383027
0.019964322 -0.1008504 -0.10113768 0.00023831427 -0.0394627 0.072499365 -0.031263277 -0.018217146
0.07695091 0.0057926923 0.09518488 -0.1202248 0.105414584 -0.07577279 0.10330978 0.10419327
0.08092673 0.04801953 -0.00645712 -0.11170754 -0.079307795 -0.101116374 0.012270421 -0.07273352
0.004722461 0.049962282 -0.10597825 0.053642735 0.022840396 0.056500092 -0.04796399 0.02401252
-0.12060559 0.0033783615 0.0020188987 -0.115554124 0.086169735 0.04763235 -0.004977584 -0.12001574
-0.055839166 -0.015378013 0.030741572 0.03200057 -0.08734164 0.03604366 -0.068230316 0.051386848
-0.021314561 0.0022432804 -0.042738706 -0.083036706 -0.10913345 0.05610153 0.04813701 0.046076432
0.06921315 0.10554129 0.022956535 0.05567743 -0.12454747 -0.08031604 0.036056012 0.10066661
0.09279993 0.11806421 -0.08815816 0.06695384 0.02319324 0.0007392913 -0.0036496222 0.037735984
-0.10783076 -0.02693434 0.10898127 -0.050999537 0.11358693 -0.0008430034 0.024524689 -0.09315036
-0.10214521 -0.010236368 0.050599158 0.11854139 0.02329193 -0.059054285 0.0004799664 -0.056258887
0.12209763 -0.030384213 -0.05137889 0.00508371 -0.040775478 0.013283625 -0.023947015 0.055948347

feature_extractor.arm_state_fc.2.bias f4 [64]
00000000: c074 c7bc 04da aabd 1ab3 d23d 28c6 573d
00000010: 106f ad3c f4e5 8c3d d4b7 debd 805b 5ebd
00000020: 4ec1 c73d 7897 7d3d 80ef 25bc 1654 b93d
00000030: a4fa 92bd f6cb e93d e8eb 8ebc 446c 793d
00000040: 2022 a13b 20a6 9cbd cc18 b83d 480a 9fbc
00000050: 94a1 273d 704b 2d3d 7cef 62bd 4e14 f53d
00000060: 9825 b63d 78bf f4bd 3084 e83d a60d dc3d
00000070: b21e a6bd 006a b43b 240a 893d 887c 123d
00000080: a0f7 0abc 0497 803d 2424 82bd f465 453d
00000090: 449c 953d 5042 d83c 821e debd 984d 943d
000000a0: 189a ce3d 4aa4 953d 40a6 c6bc f83a ad3c
000000b0: 1cb4 4fbd c453 82bd e41f 2abd 3ad3 b93d
000000c0: 90c3 88bc 4eab e73d f405 fe3d 603d de3c
000000d0: ea51 873d 304f 29bc 7eda f23d 50d2 2abd
000000e0: a0f4 b9bd 60fa 973c 6626 ec3d 108c 25bc
000000f0: e010 593c 309e b9bd 40d0 9c3c 0cf8 eebd
-0.024347663 -0.083423644 0.10288067 0.05267921 0.021171123 0.068797976 -0.10874906 -0.05428648
0.09753667 0.06191203 -0.010127902 0.09049241 -0.07176712 0.114158556 -0.017446473 0.060894266
0.004917398 -0.07648873 0.08989105 -0.019414082 0.040925577 0.04230827 -0.05540417 0.119667634
0.08893889 -0.11950582 0.11353338 0.10744791 -0.081113234 0.0055058002 0.06691387 0.035763294
-0.00848189 0.06278804 -0.063545495 0.048192933 0.07305196 0.026398808 -0.10845663 0.07241362
0.10087985 0.07306726 -0.024249196 0.021146283 -0.050708875 -0.06363633 -0.04153432 0.090734914
-0.016694814 0.11311971 0.12403479 0.027128875 0.06607421 -0.010333821 0.1185808 -0.041704476
-0.09079862 0.018552005 0.115307614 -0.010104194 0.013248652 -0.09063375 0.01914227 -0.11668405

feature_extractor.combined_fc.0.weight f4 [512, 320]
00000000: 3e31 4c3d a6f5 44bd 983c eabb 00dc 28b9
00000010: 784d 3b3d cb15 f7bc 76dd 5ebd 7460 b13c
00000020: 8067 e33b c0e6 c93c 4043 643a c6e4 4e3d
00000030: f63c 53bd 80dd fe3b 9092 0b3d 406c 993c
00000040: 043e 373d 402e fe3a 838b 26bd 40d0 be3b
00000050: 9069 543d 24f0 263d 3415 20bc 472d 5bbd
00000060: 104a c1bc 967c 593d 4612 8fbc 61fc 48bd
00000070: 4cd6 ab3c 5e4a 01bd 9084 f83c c116 d7bc
00000080: d068 dfbb 884b 00bd cc6b 583d 4cd8 dd3c
00000090: dc73 453d 1a92 9abc 9479 463d 1e83 3cbd
000000a0: d204 3d3d f0e5 adbb 8205 1b3d 38fe 5bbc
000000b0: 2221 1d3d 045d 1e3d 0bf3 2ebd e8ac 0a3c
000000c0: fce7 9a3c 3063 35bc 30fc 88bb 2d34 46bd
000000d0: ecfb bb3c 1c83 943c 2c56 da3c a65a 50bd
000000e0: f231 3b3d 3892 2e3c a883 6f3c 74d9 08bd
000000f0: 14a7 853c 0aa9 173d 1a6a 3a3d 4e56 4a3d
00000100: 1c10 e83c 60a3 5abd 16f8 5e3d c04c c7bb
00000110: 88e2 633c b2a7 303d a82e 99bb 4829 72bc
00000120: f6bf 283d 10d2 7fbb 46d6 383d 58fe 3b3c
00000130: f1f8 3abd 9f31 63bd 6931 cbbc 4088 913a
00000140: 6329 f7bc 426b 1d3d 07d7 06bd 409b fb3a
00000150: 05f2 5dbd 7089 0bbd e820 1a3c 1055 35bd
00000160: 3174 d6bc 5cbd 55bd 3ef4 0a3d 7039 64bb
00000170: a40d 3d3d 3ec2 b4bc 029f 503d c419 5a3d
00000180: d07e 443b 9b56 55bd 3678 2b3d 12b5 343d
00000190: 884c b7bc d2e1 073d 2213 91bc 298e 48bd
000001a0: bfcb 0cbd c897 09bd 552f 41bd 840f 3e3d
000001b0: 0a92 31bd 2adf 3d3d b2e1 13bd a83e 49bd
000001c0: 28d7 2fbc 0343 37bd c8f7 1d3c d296 18bd
000001d0: 4ec6 f0bc 743d 35bd 9886 31bd 5aac 203d
000001e0: 184a bbbb 08f7 35bd 3816 893c d87c d7bc
000001f0: 0612 523d c28c 8ebc aca3 ed3c 08d8 373d
00000200: 6230 553d 98bc acbc d0b6 5ebd 08cc 233d
00000210: 36e6 b6bc 6774 e6bc c472 e83c 54b8 6ebc
00000220: 766b b0bc 3fa0 4cbd 28e9 f6bc b0f5 543b
00000230: 4a1a 473d f02f 0ebc 1d4c efbc 6f06 2bbd
00000240: c8c2 3c3d 9aa1 84bc e65d 373d bcf1 e83c
00000250: e890 d93c 28a6 be3c 548a 643d a426 123d
00000260: dabb 16bd 022b 51bd c053 5d3a 3e19 1bbd
00000270: 088d e5bb 8ce9 31bc 0013 47bb 9487 fdbc
00000280: 2c8f 233d 7234 9dbc 5836 623c 16c1 c0bc
00000290: 9e2b 21bd 70df 7d3b 78b0 2e3c 01a0 55bd
000002a0: 4804 cf3c 381f 433d 987a 923c 2014 f33b
000002b0: 7817 2c3d 52ce 4c3d 43c6 24bd 64ff a13c
000002c0: 66b6 42bd 522e 033d 665b c5bc c887 08bd
000002d0: d8ff 0d3d 768e 30bd 8cce 323d 9001 f73c
000002e0: 80ec e23c c32a 4cbd 388f 42bc 28d2 0f3c
000002f0: 8068 6f3c 20ff 173d dc64 aa3c 8013 5d3d
00000300: c461 3e3d 8001 c3bb c474 e33c 2897 64bc
00000310: ce5d 94bc 406a 593c 9490 9a3c 9ab9 1e3d
00000320: 3024 ca3c 88d8 a43c 2c48 04bd 00a5 a439
00000330: f5b1 d3bc c04b 3e3a ae78 3fbd 2023 d03c
00000340: fd7c 5abd d83e 533c 445d 9cbc 849b 373d
00000350: 5e76 50bd 4f36 d7bc d4d8 cdbc 802a d6bc
00000360: 947d 24bc b4f7 c63c f05a 44bb 2aa2 9dbc
00000370: 9c21 1cbc 77f7 d8bc 42bd 4c3d a0e3 4a3c
00000380: 721d 5c3d d525 53bd e3e7 24bd 947a 11bd
00000390: fc4f e23c ea91 483d e28c 033d 02e3 0e3d
000003a0: f284 86bc de37 4ebd 8058 803a 785c c23b
000003b0: ace2 063d 9004 4c3c 18fc 3b3c 202e 5c3c
000003c0: 9099 dcbb ba9d 82bc 28df 8d3c c4c2 2dbc
000003d0: 88e6 d2bc 8758 4abd 5810 253c c00a 1d3a
000003e0: 90dd 233c e778 d6bc 1cae ae3c 4e3f 423d
000003f0: 0cbb 34bd 484a 12bd e500 5abd 6b1f 0abd
0.04985165 -0.04808583 -0.0071483366 -0.00016103685 0.045728177 -0.030161759 -0.05441042 0.021652438
0.0069398284 0.024646163 0.0008707531 0.050511144 -0.05157181 0.0077778697 0.03407532 0.018728375
0.044736877 0.0019392446 -0.040660392 0.005823165 0.051858485 0.04075636 -0.00977068 -0.053509977
-0.023594886 0.05309733 -0.017464768 -0.049068812 0.020976208 -0.031565063 0.030336648 -0.026255967
-0.0068179145 -0.031322032 0.052837178 0.027080677 0.048206195 -0.018868495 0.04845579 -0.04602348
0.046147175 -0.0053069517 0.03784705 -0.01342731 0.038361676 0.038662925 -0.042712253 0.008464076
0.018909447 -0.011071011 -0.0041804537 -0.048389602 0.022947274 0.018128924 0.026652418 -0.0508677
0.04570193 0.010654978 0.014618792 -0.033410504 0.01631502 0.037026443 0.045511343 0.049398713
0.028327994 -0.053378463 0.054435812 -0.0060821474 0.01390899 0.043128677 -0.0046747513 -0.01478035
0.041198693 -0.003903512 0.045126222 0.0114742145 -0.045647565 -0.055467244 -0.024803834 0.0011103228
-0.030171102 0.038432367 -0.03291991 0.0019196048 -0.054185886 -0.034066617 0.0094072595 -0.044270575
-0.026178451 -0.05218254 0.033924334 -0.0034824274 0.046155587 -0.022065278 0.05093289 0.05324723
0.0029982813 -0.052084547 0.04186269 0.044117995 -0.02237536 0.033174343 -0.017709319 -0.0489637
-0.034373995 -0.033592016 -0.04716428 0.046401516 -0.043352164 0.046355404 -0.03610391 -0.04913202
-0.01073245 -0.04474164 0.009641595 -0.03725321 -0.029391434 -0.04424806 -0.04334125 0.039226867
-0.00571562 -0.04442504 0.016734228 -0.026304647 0.05128672 -0.017401103 0.029008709 0.044883758
0.052048095 -0.021086022 -0.054373562 0.0399895 -0.02232657 -0.028131677 0.028375037 -0.014570314
-0.021535616 -0.04995751 -0.030140474 0.0032495074 0.048609056 -0.008678421 -0.029211098 -0.041754182
0.046084195 -0.016190339 0.044767283 0.02843558 0.026558354 0.023272589 0.055795982 0.03568138
-0.036800243 -0.051066406 0.00084429607 -0.03786587 -0.0070053376 -0.010858905 -0.0030376315 -0.030948438
0.03993146 -0.019190047 0.013806902 -0.02352957 -0.039348237 0.0038737915 0.010662191 -0.052154545
0.025270596 0.047637194 0.017880723 0.0074181706 0.04201457 0.05000145 -0.04022814 0.0197751
-0.04753723 0.032026596 -0.024091434 -0.033332616 0.03466782 -0.04310461 0.04365401 0.030152112
0.027700663 -0.04984547 -0.011874966 0.0087781325 0.014612317 0.03710854 0.020800047 0.053973675
0.046479955 -0.0059511065 0.02776564 -0.013952054 -0.018111136 0.013269961 0.018867768 0.038751222
0.024675459 0.020122781 -0.03229539 0.00031403452 -0.025841692 0.00072592124 -0.04674595 0.025407374
-0.053341854 0.012893401 -0.019087441 0.044826046 -0.050894134 -0.026271014 -0.025127806 -0.026143312
-0.010039706 0.024288036 -0.002996143 -0.019242365 -0.0095294975 -0.026485188 0.049985178 0.012383372
0.05373902 -0.05154975 -0.040260207 -0.03551729 0.02762603 0.04896728 0.03211678 0.03488446
-0.016420815 -0.050346248 0.0009792 0.0059314333 0.032931015 0.01245226 0.011473678 0.013438731
-0.0067321733 -0.01594435 0.017318323 -0.010605518 -0.025744691 -0.049400833 0.010074697 0.00059906766
0.010001555 -0.026180698 0.021323256 0.047423653 -0.044123694 -0.03571537 -0.05322351 -0.03372137

feature_extractor.combined_fc.0.bias f4 [512]
00000000: 30b8 b03c f455 c73c 587c 05bc c416 bd3c
00000010: 5887 8bbb 64e8 1a3d 0861 1d3c b68d 2a3d
00000020: 10f6 1fbd fefb 16bd ba7b 0fbd 4092 ec3b
00000030: 189b b73c 8825 ab3c c05f 093b 362a 483d
00000040: facc 56bd 94c2 1cbd f44c 5e3d c07d 77bc
00000050: a8f7 183c eadf 3d3d be89 3e3d b875 30bc
00000060: e40e aabc 067f 5abd 04ad ed3c d63b 29bd
00000070: fd3c 3ebd efe4 62bd 1fee e1bc 187e 35bd
00000080: e8c3 373d 087d f0bc c02c 49bc b4c2 71bc
00000090: a8a6 5f3d 88c9 a7bb 8a0f 2f3d d0a4 f5bb
000000a0: f6ba 39bd 5471 ba3c 8445 c1bc b2cb 3e3d
000000b0: 389b f2bc e0cc 06bc b8fe 563c b8e0 8cbc
000000c0: b07b 453d b64b 04bd 7e34 043d b866 01bd
000000d0: fc94 a5bc 88fa 77bc 5475 023d 0ab1 3e3d
000000e0: a0c8 6a3b b260 263d 8048 a13c 5873 c8bb
000000f0: 8439 8cbc 1e54 f4bc 645b a73c 5ee7 07bd
00000100: 78d4 d2bb 7e47 f8bc 107e b33c 401e 3aba
00000110: 9219 c3bc d049 273d 0092 1839 c8fb 4abc
00000120: 1cd2 203d c87c 313d 6838 273d 4e32 0b3d
00000130: f0e3 773b 10cf b03c 8a02 29bd 6b1a 5dbd
00000140: d050 993b 0eec 98bc 80be 12bd c04b 903c
00000150: 0e3a 42bd bad9 14bd fc0d 4fbd aeda 0abd
00000160: 616a 3abd c27c 9ebc 118f 30bd 6055 5cbd
00000170: 10cf 713c b865 083d b083 213d 2021 8ebb
00000180: 9269 193d 5698 063d c42a 883c 40dc ef3b
00000190: 0ee5 e3bc 90eb b8bb bce0 0cbd a6cf 04bd
000001a0: b0d0 55bd c4b3 073d aa61 60bd c8e7 c43b
000001b0: 2a92 e2bc 5ef0 0dbd f276 84bc fcf5 f53c
000001c0: dc4a c73c 9460 a93c 919d 52bd 9c2f 1dbd
000001d0: 04ce 11bd a085 b63c e050 283c 6a42 01bd
000001e0: 30eb da3b ac16 48bd 94e6 e4bc e0b6 4abb
000001f0: 3aed 3cbd d83b 3a3c 90b6 113c fa24 45bd
00000200: 38b0 243d a006 08bc e8f7 ed3c 6898 e0bb
00000210: c42a 88bc a03a a83b e0dd eebb ac70 1fbd
00000220: 18c1 3e3c 405e 213d 3cfb 123d 6a20 183d
00000230: c68d 14bd d854 f3bc 509e 06bc 1fbc 14bd
00000240: f65e 1f3d 1028 073d f4b2 5e3d 5c41 3cbd
00000250: 786f 7c3c e59c f7bc 5078 9a3c 0ce0 403d
00000260: 30be 7a3c f43b 643d 3895 9f3c e07e a03c
00000270: 4c84 323d 80ae df3c 2442 0ebc fca1 613d
00000280: f0cc 1c3c 7e1c 12bd 1009 3f3c c8e5 b93c
00000290: 025e 1dbd 504e 6b3b 9022 de3c 50ef e83c
000002a0: 60e1 333d 656e 40bd 2832 bebb 2b8d 07bd
000002b0: 7ad5 08bd 10b9 d83b 0602 4a3d 363f 2e3d
000002c0: fe0f 0cbd 0c25 f63c 5ce8 1cbc f175 dfbc
000002d0: 7034 5d3b 0c51 62bc 9081 23bd d0ea 09bd
000002e0: 4692 5f3d 826b 0dbd b015 4f3c 70b9 ab3c
000002f0: dfc5 cabc 7a45 283d 7c88 a43c b09d 823c
00000300: c86c 5d3c 8e2e 2d3d c8b0 2c3c 4c8d 103d
00000310: 984e ec3c 68a7 f5bb f038 f33c 3425 f83c
00000320: 042b eb3c f095 fd3b 4e64 0e3d 58ec aabc
00000330: dc7e 633d 98d8 a0bc 802b 663c 20c0 153b
00000340: 08b6 c9bc ac87 b13c 3018 543d e850 0fbc
00000350: 87d5 0fbd 1361 43bd 9054 493b 247d b63c
00000360: 3c28 55bd a804 8a3b 94ba 3dbc a862 3cbd
00000370: 0131 28bd a2bc 503d 3fb3 17bd 50da 1c3c
00000380: b0b4 183d a0cc febb 0078 eabc d00f 52bc
00000390: f8eb 1f3d 28d1 3f3c 00c0 d53c 088d 103d
000003a0: 5ae4 2dbd c86a be3b e28b aabc c827 fdbb
000003b0: 39ab 45bd a09d 42bd 8e3e 59bd 4c31 883c
000003c0: 5c65 0dbc 1050 e03c d3b6 42bd 9281 94bc
000003d0: 45ff 4cbd 58e4 723c feb1 cfbc 1c5f f13c
000003e0: 3081 74bc 884a 2ebc 3921 62bd 40d7 bfba
000003f0: 6ac6 2bbd 9ca6 1d3d 70d3 9c3b dfb0 0cbd
0.021572202 0.024332978 -0.008147322 0.023082145 -0.0042580776 0.03781928 0.009605654 0.041639052
-0.039053023 -0.036861412 -0.035030104 0.007219583 0.022412822 0.02089192 0.0020961612 0.04886838
-0.052441575 -0.0382715 0.054272607 -0.015105665 0.00933639 0.04635612 0.04651808 -0.010770254
-0.020759054 -0.053343795 0.029013164 -0.04131683 -0.04644488 -0.05539411 -0.027579365 -0.044309705
0.044864565 -0.029356495 -0.012278736 -0.0147558935 0.054602295 -0.00512046 0.04273943 -0.007496454
-0.045344315 0.022759117 -0.023592718 0.046580978 -0.02961503 -0.008227557 0.013122253 -0.017196998
0.04821366 -0.032298766 0.032276623 -0.0315921 -0.020212643 -0.015135415 0.031850174 0.046555556
0.0035825148 0.04061956 0.019687891 -0.0061172657 -0.01711727 -0.029825266 0.02042932 -0.033179633
-0.0064340197 -0.030307528 0.021910697 -0.00070998445 -0.023815904 0.040841877 0.00014550239 -0.012389131
0.039262876 0.04333189 0.040825278 0.03398352 0.003782507 0.02158311 -0.041262187 -0.053980272
0.004678823 -0.018667247 -0.035826206 0.017614245 -0.047418647 -0.036340453 -0.050550446 -0.033899955
-0.045511607 -0.019346599 -0.04310519 -0.053792357 0.01475884 0.03330013 0.039432228 -0.004337445
0.037454195 0.032860123 0.016621955 0.007319957 -0.027819183 -0.0056433156 -0.03439401 -0.03242459
-0.052200973 0.033130422 -0.05478064 0.006009076 -0.027657587 -0.03465306 -0.016169999 0.030024521
0.024327688 0.020675935 -0.0514198 -0.038375482 -0.035596862 0.022280514 0.010273188 -0.031557478
0.0066808686 -0.048849747 -0.02794198 -0.0030931756 -0.046124674 0.011366807 0.008893624 -0.048130967
0.040207118 -0.008302361 0.029048875 -0.0068541057 -0.016621955 0.005133942 -0.007289633 -0.03892581
0.011642717 0.039396524 0.035884127 0.037140287 -0.03626802 -0.029703543 -0.008216456 -0.03631222
0.03890892 0.03299719 0.05436988 -0.04596077 0.015407436 -0.03022618 0.018856198 0.047088668
0.015304133 0.05572124 0.019480333 0.019591749 0.0435832 0.027304888 -0.008682761 0.05508612
0.009570345 -0.035671704 0.0116598755 0.022692576 -0.03841973 0.0035904832 0.02711609 0.028434426
0.043916106 -0.04698028 -0.005804319 -0.033093613 -0.033406712 0.006613858 0.049318336 0.04254075
-0.03419494 0.030046962 -0.009576883 -0.027277919 0.003375318 -0.013813268 -0.039918482 -0.0336712
0.054582857 -0.034526356 0.012639448 0.020962447 -0.024752555 0.041081883 0.020084612 0.015944332
0.013514705 0.042280726 0.010540195 0.035291 0.02884607 -0.007496763 0.029690236 0.030291177
0.028707035 0.007738821 0.034763627 -0.02086465 0.055540904 -0.01963453 0.014048457 0.002285011
-0.024622932 0.021671139 0.05178088 -0.008747317 -0.035115745 -0.0477 0.003072057 0.022276469
-0.052040324 0.004211981 -0.011580128 -0.045992523 -0.04106236 0.050961144 -0.037036177 0.009573534
0.037281692 -0.007775858 -0.028621674 -0.012821153 0.039043397 0.011707582 0.02609253 0.035290748
-0.0424541 0.005811069 -0.020818654 -0.0077256896 -0.048258994 -0.047513604 -0.053038172 0.01662507
-0.008630123 0.027381927 -0.047537636 -0.01812819 -0.05004813 0.014824949 -0.025353428 0.029464297
-0.014923379 -0.010637887 -0.055207465 -0.0014636293 -0.04193727 0.03848897 0.0047859475 -0.034348365
